hand-gesture-recognition/model/keypoint_pinky_2class_kk/keypoint_classifier_pinky_kk.tflite (tflite, 6468 bytes, 6 tensors)

arith.constant f4 [2, 10]
000000 e8 23 26 3e 23 0e 15 3f 8c 21 d1 be b4 0e 47 bd
       0.16224635 0.58224696 -0.40845907 -0.048598006
000010 fe 96 1d 3f f0 f3 1a bf 43 f1 2e 3f 0f 04 1c bf
       0.6155852 -0.6052847 0.68336886 -0.6094369
000020 d1 50 81 bf 3a a7 1b 3f a7 e5 96 bf 28 5f 6b be
       -1.0102788 0.6080204 -1.1788834 -0.22985518
000030 a8 28 e8 3e 0b 65 7f 3f da 83 43 bf 52 81 7c 3f
       0.45343518 0.99763554 -0.76373065 0.9863483
000040 a8 d3 84 bf 28 33 87 3f b2 57 ed 3e 6e 57 ed be
       -1.0377092 1.0562487 0.4635597 -0.46355766

arith.constant1 f4 [10, 20]
000000 7e f3 64 be 33 85 3b 3f 6b 6d e9 be be 40 0d 3d
       -0.2235851 0.7325012 -0.45591292 0.03448557
000010 fe 74 f3 be 5f c8 b2 3e 0c 21 98 3e d3 4a 02 3e
       -0.47550195 0.34918496 0.29712713 0.12723856
000020 d9 65 04 bf d9 a7 80 be 75 bd 0b bf aa a8 aa 3e
       -0.5171791 -0.25128058 -0.54585963 0.33331805
000030 86 72 8a be 2e 2a 32 3f c8 f4 f2 3e 18 db 0a bf
       -0.270405 0.6959561 0.47452378 -0.5424056
000040 57 6a 22 bf 6a 1d 93 be be bf fe bd ab d7 00 bf
       -0.6344351 -0.2873338 -0.12438916 -0.50329083
000050 9e 45 fd bd 04 02 1e bf 7a 2a d6 3e a2 db aa be
       -0.12366794 -0.61721826 0.41829282 -0.33370692
000060 d9 d8 44 be 6b f4 16 be 06 78 77 3e 4b 98 f5 be
       -0.19223346 -0.14741676 0.24166879 -0.47967753
000070 1b bd be be d7 5b 30 3e 8d 3c 33 bd 25 d7 3b 3f
       -0.3725365 0.17222534 -0.043758918 0.7337516
000080 1c 9d 2b bf 00 4d ca 3d 28 ba fb 3d 9b 83 b6 3e
       -0.67036605 0.09877968 0.12291366 0.35647282
000090 e6 98 27 bf a6 96 79 bb 10 02 2b 3f 25 0c d5 be
       -0.6546768 -0.0038084178 0.6680002 -0.41610828
0000a0 a6 b0 0e 3f 3d 09 e8 bd f0 6d 43 bd 70 95 8a bd
       0.55738294 -0.11329887 -0.047712266 -0.06766784
0000b0 79 e3 4c 3f 60 71 96 3d af d7 09 be 08 50 01 bd
       0.80034596 0.07345843 -0.13461183 -0.031570464
0000c0 83 f9 a4 3e 33 6b ca be 9c 78 4b be 50 2b ac 3e
       0.32221612 -0.39534912 -0.19870228 0.33626795
0000d0 d8 36 e9 3d d6 10 fd bd df fa f0 bd 81 3b 8f be
       0.11387414 -0.12356727 -0.117666 -0.27975085
0000e0 9e 7b 00 3f eb 72 82 be 90 16 4c be f8 7f 05 3f
       0.50188625 -0.254783 -0.19930482 0.5214839
0000f0 6f 19 07 3f f5 09 53 bd b1 52 d8 be 73 c4 0b 3e
       0.52773184 -0.051523168 -0.4225059 0.13649158
000100 28 ac 00 3f 28 fa 5b be fe bf 3f 3d 9a d5 98 3c
       0.5026269 -0.21482146 0.046813957 0.01865654
000110 ed d0 04 3f 3b aa 51 be 77 ab dc bd db f0 26 3e
       0.51881295 -0.20475094 -0.10774892 0.16302817
000120 08 5f 80 be 0b 05 cd be 3b 65 4d 3e 85 d7 fd be
       -0.25072503 -0.4004291 0.20058148 -0.4957849
000130 56 04 56 3f d5 fc 07 3f dc e0 34 be 37 6f fe 3e
       0.83600366 0.53120166 -0.17663902 0.49694225
000140 ac 9f 1b 3e 19 a4 25 3e 2b 42 7d 3e 0b a1 09 3f
       0.15197629 0.1617588 0.24732272 0.5376136
000150 5b c8 5e bd f6 70 a2 3e 35 cb ef 3e a6 20 e7 be
       -0.054390293 0.31726807 0.46834722 -0.45142096
000160 06 2f 12 bf a3 d1 12 3e d5 d4 28 3f ac 62 07 3f
       -0.57103 0.14337783 0.65949756 0.52884936
000170 82 1f 3e 3e d4 61 0e 3e a5 29 f4 3e 96 3c 0a 3f
       0.18566707 0.13904506 0.47688022 0.53998697
000180 26 75 97 be 60 2f bd bd 1d ab c6 be 58 e2 6e be
       -0.29581565 -0.09237552 -0.38802424 -0.23328531
000190 fb ec f7 3d c0 f9 d8 3c 48 79 af bd eb 68 eb bd
       0.12105747 0.026486278 -0.085680544 -0.11494621
0001a0 9a fe 30 3f 5d 7d be bd f2 30 90 bc 3e ed 8f 3d
       0.6913849 -0.09301255 -0.017601464 0.07027672
0001b0 41 28 49 3f 40 5d 20 be 32 da 95 be a4 ea 75 3e
       0.7857705 -0.15660572 -0.29268032 0.2401529
0001c0 0d 5f 72 bd ac 03 90 be 24 74 32 3d 00 ed eb 3d
       -0.05917268 -0.281278 0.04356779 0.115198135
0001d0 52 dc 35 3f bb c3 1a 3f 14 e7 1f 3e 64 c0 49 3f
       0.7103931 0.6045491 0.15615493 0.7880919
0001e0 0f 03 29 bd b3 67 a9 3e 57 4a eb bd ec 9e 09 3f
       -0.041262683 0.3308693 -0.114887886 0.5375812
0001f0 66 9e a2 be ae be 3a 3e 36 5c 91 be 38 8c 98 3e
       -0.31761473 0.18236801 -0.28390664 0.29794478
000200 6b 86 b7 be 82 6f a3 3e 71 c6 74 3e 70 1d d1 3e
       -0.3584474 0.3192101 0.23903824 0.40842772
000210 fd 00 2c 3f 68 64 06 3d a9 81 a6 3e f5 3f 9b 3e
       0.6718901 0.0328106 0.32520798 0.30322233
000220 80 b3 06 bf 0a 8f 12 be 03 62 95 3e 00 54 00 bf
       -0.52617645 -0.14312378 0.2917634 -0.50128174
000230 6e 28 f1 3e 98 16 0c bf a5 d0 c6 be b8 a1 79 be
       0.47101158 -0.54721975 -0.38831058 -0.24378097
000240 9b 34 5f 3e 4b 4b 7e be 34 9d 61 be 40 f5 7b bd
       0.21797411 -0.2483341 -0.22032624 -0.061513186
000250 2b 14 a0 3e 53 9d b3 be 56 80 38 be f0 aa 36 be
       0.31265387 -0.35080966 -0.18017706 -0.17838645
000260 08 a4 e8 bd 04 a3 26 be f8 64 82 be b0 b8 a1 be
       -0.113594115 -0.16273123 -0.25467658 -0.31586218
000270 ba e3 08 3f e1 99 e4 3e d9 6e 1a bf ae 4f 70 3f
       0.53472483 0.4464865 -0.6032539 0.9387158
000280 53 2f 95 be 85 e0 5f 3e a5 13 89 3b 9d 7e 69 bd
       -0.29137668 0.21862991 0.00418325 -0.057005513
000290 19 a5 12 3f 48 ad d6 3d ca 1f 90 3c af 25 47 bc
       0.5728317 0.104822695 0.017593283 -0.012154981
0002a0 f6 5a 72 3f 7c 2e 08 3e 45 91 17 3c 88 95 81 bd
       0.94670045 0.13298982 0.009250944 -0.06327349
0002b0 2c b5 15 bd 8f 56 98 3c 87 cc 9c bd d1 ef ee bd
       -0.036549732 0.018595962 -0.07656198 -0.11666835
0002c0 67 f5 96 3f a2 b9 06 bf cf 91 ab bd e5 2a 3e 3f
       1.1793641 -0.52627003 -0.0837742 0.742842
0002d0 2a c6 05 be b7 bf 0c 3f c9 d3 dc 3e 58 2b e7 bc
       -0.13063875 0.54980034 0.4313033 -0.02821891
0002e0 00 5e ba bd ae e6 00 3f b8 b8 d7 be a4 bf ec 3e
       -0.0909996 0.5035199 -0.42133117 0.4623996
0002f0 9b 56 ed be b6 2b 53 be ef ce 65 be 6c ae 26 be
       -0.46355137 -0.20622143 -0.2244222 -0.16277474
000300 72 33 32 bf 40 da 97 be 8b 84 39 3d 95 1c 80 3e
       -0.6960975 -0.296587 0.04529242 0.25021806
000310 49 53 63 be a6 3d cd bd ed 81 ad 3e fa 12 d8 be
       -0.2219974 -0.10021524 0.33888188 -0.42201978

arith.constant2 f4 [2]
000000 dd 5d 86 bc f1 5d 86 3c
       -0.01640218 0.016402217

sequential_1/dense_1_2/BiasAdd/ReadVariableOp f4 [10]
000000 2d 58 61 3e bd cc 5e 3e 5f e9 ef 3d ea 74 60 3e
       0.22006293 0.21757789 0.11714434 0.21919599
000010 2a a1 11 3e e8 00 6a 3e a9 66 89 3e 97 9a 90 3e
       0.14221635 0.22851908 0.26836136 0.28242943
000020 00 00 58 3d 7f a6 85 3d
       0.052734375 0.06525897

sequential_1/dense_1/BiasAdd/ReadVariableOp f4 [20]
000000 c0 e5 09 be 62 f0 fa bd 07 33 8d be 10 f0 74 be
       -0.13466549 -0.12252881 -0.27577993 -0.23919702
000010 47 ec 62 be f8 29 b0 be fb c2 7b be 49 74 4e be
       -0.22160445 -0.3440702 -0.24586098 -0.20161547
000020 79 f6 87 be e9 fb 75 be c1 66 30 be 55 eb ae be
       -0.2655523 -0.24021877 -0.17226698 -0.3416392
000030 09 1a 8e be b7 eb da be 8c 5d b6 be 13 4d d9 3d
       -0.27754238 -0.4275796 -0.35618246 0.10610404
000040 8c c2 8a be 09 d9 db bd 23 e5 09 3d ed 08 9c be
       -0.27101552 -0.107347555 0.033665787 -0.3047556

sequential_1/dense_1/MatMul f4 [20, 42]
000000 02 4a 1b be 20 1b e5 bc 3e ad d4 3d 8d 73 c1 3e
       -0.1516495 -0.027967036 0.10384606 0.3778347
000010 95 6e 9c bd e3 d9 c9 3c f6 59 7b 3a 1b 2c 8d bd
       -0.07638279 0.02464003 0.00095882954 -0.06893178
000020 7f f9 60 3c b2 8c f9 bd fb e6 ce 3a 78 03 7f bc
       0.0137313595 -0.121850386 0.001578539 -0.015564792
000030 d2 d8 02 bc dc dd 92 bd 78 01 7d bb fe a1 16 be
       -0.007986264 -0.071712226 -0.0038605612 -0.14710233
000040 72 3a 2f 3d 3d 0b 1a be b2 d0 93 3d 4e 6a 8c bd
       0.042780347 -0.1504335 0.0721754 -0.068562135
000050 f4 ea 09 bd eb 4b 33 be 64 e1 27 3d 49 d8 2c be
       -0.033671334 -0.17509429 0.040986434 -0.16879381
000060 48 bb 1f 3c 7c 92 34 be 7c fe 11 be 35 52 c4 bd
       0.009749241 -0.17634004 -0.14257234 -0.09585992
000070 7d 8f 99 bd c3 73 3c bd d9 cb 4b 3d fa 4e 9c 3c
       -0.07498071 -0.046008836 0.04975495 0.019080628
000080 4e 3a 4f ba f2 61 a6 3d 04 21 45 be eb fa d5 bd
       -0.00079051114 0.0812415 -0.19250876 -0.104482494
000090 3b f5 8d 3d 16 b9 a8 bb 56 4d d2 3c 45 5f 94 3f
       0.069315396 -0.005149017 0.025671642 1.1591574
0000a0 11 74 c3 3b 37 fd 59 be 80 23 b4 bc ec 65 7d 3e
       0.005964764 -0.21288 -0.021989584 0.24745911
0000b0 4d 75 dc 3e 07 b6 bc be 88 24 74 3e 05 6c 42 3e
       0.43058243 -0.36857626 0.2384206 0.18986519
0000c0 ca 77 91 3e ff 92 b7 bd bc fb 46 3e 01 08 f6 bc
       0.28411704 -0.08963584 0.19431967 -0.030033113
0000d0 59 55 f7 3e c7 a8 01 be d6 fc 96 3e 97 9e 15 be
       0.48307303 -0.1266204 0.29489774 -0.14611278
0000e0 af 92 67 3e a8 df 20 be 53 3a 95 bb 57 14 ce 3d
       0.22614549 -0.15710318 -0.004554072 0.10062473
0000f0 39 ac b1 3d 1a 47 22 be 2b 8c f6 3d 86 bd 91 be
       0.08675427 -0.15847436 0.12038454 -0.28464907
000100 17 f7 87 bd 5e d0 28 be a3 8a 3a 3d 88 e5 97 be
       -0.066389255 -0.16485736 0.04554237 -0.29667306
000110 f2 a1 34 3e 67 cc 8a 3d 97 5a 44 3e 56 70 95 be
       0.17639902 0.06777268 0.19175182 -0.29187268
000120 e7 8d dd bd de 57 b2 bd 44 ea 51 be b9 2a cd be
       -0.10818081 -0.087081656 -0.20499521 -0.40071657
000130 59 e4 b6 bd 14 76 e3 bc d7 a1 e6 3e 56 fb bb be
       -0.089302726 -0.027766265 0.4504535 -0.36715192
000140 42 34 59 3e e0 b6 96 be d9 41 4a bd fb 79 e2 bd
       0.21211341 -0.29436398 -0.049379203 -0.11058422
000150 d0 65 0f 3d e0 76 5a bd 75 cf ec 3d 77 d5 06 bf
       0.035009205 -0.053336024 0.11563007 -0.5266947
000160 22 bd 02 be bc bf 73 3d 95 74 24 3e e9 32 a8 3e
       -0.12767461 0.059509024 0.16060098 0.3285134
000170 a2 8a aa bd 53 c8 ce 3e f6 23 61 3e cd 72 18 3e
       -0.08327223 0.4038721 0.21986374 0.14887543
000180 34 61 ac 3d df ff 27 3e 4c c7 11 3c 2f 21 8f 3d
       0.084169775 0.16406201 0.008897614 0.06988751
000190 e2 92 68 3e fa 2b 52 3e c4 b8 ef 3e 1c f2 4e 3e
       0.22712281 0.20524588 0.46820652 0.20209545
0001a0 7a b6 28 bd 27 77 2e be fd bb 3e 3d 0b b4 d5 3d
       -0.04118965 -0.1703764 0.046566 0.10434731
0001b0 54 ac 3d 3d 3d 11 87 bd 2a 80 6c 3e 4f ab 08 3d
       0.046306923 -0.06595085 0.23095766 0.033366498
0001c0 bf 54 09 bc 1f 6c 8c be c9 6f 2d be 7c ae 01 bd
       -0.008382021 -0.2742624 -0.16937174 -0.031660542
0001d0 70 47 08 3b 87 7f 48 be 2d 44 40 3e 9e ef 20 be
       0.0020794533 -0.19579898 0.18776007 -0.15716407
0001e0 41 be 20 3f a7 62 7d be 89 1d 35 bd 56 7d 95 be
       0.62790304 -0.24744664 -0.04421762 -0.29197186
0001f0 74 c5 42 3d ec 2f 9b bd c0 1b 82 3e 96 82 87 bd
       0.047551587 -0.075775 0.25411797 -0.06616704
000200 24 c4 ce 3d 48 8a 09 bf ce 44 70 3e aa 81 2b bd
       0.100960046 -0.53726625 0.23463747 -0.041871704
000210 50 28 08 be f2 27 dd bb de b9 91 be 9c d5 31 3e
       -0.13296628 -0.0067491466 -0.28462118 0.17366642
000220 8b c5 d5 3e c2 eb 6b 3d 8f 8f 72 3d f6 a6 e2 3c
       0.41752276 0.057597883 0.05921894 0.027667504
000230 f5 c5 49 3d 79 49 f4 bd 0c e0 62 be 85 c2 88 3e
       0.049261052 -0.11928076 -0.2215578 0.26710907
000240 9a 87 37 3f 37 b7 12 3d 8b f1 54 3e ea 81 d3 bd
       0.71691287 0.03581926 0.20795266 -0.103275135
000250 97 3a 0b be 96 ca 13 be 13 bd 94 bc e6 5f 97 bd
       -0.13596569 -0.14432749 -0.018156564 -0.07391338
000260 4d e0 9a 3e e7 e5 8b 3e 9e 34 18 3e a7 a3 b9 bd
       0.30249253 0.2732384 0.14863822 -0.09064417
000270 94 80 47 bd 5d 81 89 bd df d8 be bd f2 2e e8 bc
       -0.048706606 -0.06714127 -0.09318709 -0.028342698
000280 86 44 01 3f c7 32 05 bd ac 9f 11 be 9e f3 b2 bd
       0.50495183 -0.03251913 -0.14221066 -0.087378725
000290 c3 fc 92 be 37 4b 8a bd 2d c7 c6 bd 25 dc 8b 3c
       -0.28708467 -0.06752627 -0.097059585 0.017072747
0002a0 00 dd 48 3e f0 09 79 3e b9 be 36 bd f3 0c 73 3e
       0.19615555 0.24320197 -0.04461548 0.23735408
0002b0 7a 5d 1f 3c 53 a9 a8 3d 59 1f cb 3c ec 99 f2 bb
       0.009726876 0.08235421 0.024795221 -0.007403603
0002c0 fe 72 c5 3c ae 8d a9 bd 5a a1 03 3d c2 8d 30 3d
       0.024102684 -0.082789764 0.0321363 0.04310394
0002d0 c2 e7 26 3d 37 f9 8a bd f8 a8 91 3c 9e f7 aa bd
       0.040748365 -0.06785815 0.017780766 -0.083480105
0002e0 f2 9e d3 3b 87 f8 89 bd 7e 96 a9 3d 23 51 65 bd
       0.0064581567 -0.06736856 0.08280657 -0.05598558
0002f0 02 9e b7 3c f8 b9 b9 bd 05 a3 b5 bc 1c e6 dc bd
       0.022414211 -0.09068674 -0.02217246 -0.107860774
000300 76 a5 a7 ba c3 6b 6b bd c5 e3 9b bd c6 9e 87 bd
       -0.00127904 -0.057475816 -0.07611803 -0.066220805
000310 11 f4 02 bd f1 15 a9 bd 8f cd 7b bb cd 2e ef bd
       -0.03197104 -0.08256138 -0.0038422083 -0.116788484
000320 fc d0 44 3d 8e 4f 18 bd e5 86 6c bd b8 fc 99 bd
       0.048050866 -0.037185244 -0.057745833 -0.075189054
000330 47 6f 81 bc a9 a5 cd bd db 2f 58 3d 99 56 1f 3c
       -0.015800131 -0.10041363 0.052780014 0.009725236
000340 2c 58 89 bd 50 9b 8e 3f 78 12 13 be 8c e1 ff bd
       -0.067062706 1.1141148 -0.14362514 -0.124941915
000350 34 90 89 bd ec 72 2f 3e a3 7a 18 bd 87 7e 02 3e
       -0.06716958 0.17133683 -0.03722633 0.12743579
000360 2e 2b 87 be 2b 9c ea bd a0 fb f7 3d 11 69 c8 bd
       -0.2640013 -0.11455568 0.121085405 -0.09785665
000370 21 1c f6 3e fa 3b 85 be 8b cf 85 3c 3b 9d e1 bd
       0.48068336 -0.2602232 0.016334316 -0.110163175
000380 22 15 7d be 3a 30 cf 3e bd 5d 81 3b 76 bb 1d 3d
       -0.24715093 0.4046648 0.003947942 0.038508855
000390 46 f8 f6 3e e5 ff 8f 3d 9b 83 d1 bd 38 a4 46 3e
       0.48236293 0.0703123 -0.1023018 0.19398582
0003a0 b8 71 20 3e 43 ea 1c 3e 15 55 b8 bd cb 6b 2f be
       0.1566838 0.15323739 -0.09000603 -0.17130964
0003b0 31 35 6b 3f 99 e3 8e 3d 66 c9 8f be b1 d8 0c 3d
       0.9187804 0.069770046 -0.28083342 0.03438634
0003c0 ae 56 40 be 09 e3 47 be 64 3c 2c 3e d2 a9 74 bd
       -0.18783066 -0.19520201 0.16819912 -0.059732266
0003d0 f0 22 e4 3e f9 53 9b bd d7 be 9c be 49 53 ee bd
       0.44557905 -0.07584376 -0.3061435 -0.11636979
0003e0 63 54 4e be 8f 93 cc bd 56 bc 59 be 97 fc 7d bc
       -0.20149378 -0.09989082 -0.2126325 -0.015502117
0003f0 ec ad 5b 3e b0 1a 0c 3d 6b da e2 3e 8f e0 af bd
       0.21453065 0.03420514 0.44307265 -0.08587753
