hand-gesture-recognition/model/keypoint_27nov/keypoint_classifier_hvc.tflite (tflite, 6536 bytes, 6 tensors)

arith.constant f4 [4, 10]
0.17959492 0.076466255 -0.65880364 0.9377672 -0.29573348 0.5190732 -0.5378552 0.39795014
-0.5141405 0.019527974 0.19710249 -0.2644629 0.27488086 0.013295746 0.84635854 -0.54302156
0.5880054 -0.26417145 -0.07106356 0.8153768 -0.68651736 -0.2161371 0.37854755 0.1990207
0.41566178 -1.123333 0.058742028 -0.5663667 0.1823345 -0.24850477 -0.30336058 0.50455636
0.18267027 -0.37977952 -0.005541952 -0.66668457 0.16495746 -0.60106623 -0.55861074 -0.9112315
00000000: bbe7 373e 579a 9c3d 5ba7 28bf 8311 703f
00000010: 616a 97be fbe1 043f e1b0 09bf 1fc0 cb3e
00000020: b69e 03bf 21f9 9f3c 3cd5 493e ae67 87be
00000030: 2fbd 8c3e 67d6 593c f4aa 583f 7603 0bbf
00000040: 8687 163f 7b41 87be c689 91bd 89bc 503f
00000050: 9abf 2fbf 0b53 5dbe fcd0 c13e 15cc 4b3e
00000060: 9fd1 d43e 60c9 8fbf 7b9b 703d 68fd 10bf
00000070: e5b5 3a3e 0978 7ebe 1452 9bbe 9b2a 013f
00000080: ea0d 3b3e 7672 c2be 4399 b5bb d7ab 2abf
00000090: 9cea 283e 7adf 19bf 1d01 0fbf 7846 69bf

arith.constant1 f4 [10, 20]
-0.008319431 0.14641841 0.13139091 0.52546203 0.34790617 0.44958434 0.23769031 0.4394908
0.044036247 0.42351925 0.84831864 0.58652985 0.06000065 0.02123784 0.36647588 0.3728172
0.41395646 0.498221 0.44463286 0.23006055 0.09160116 0.16327612 -0.056918364 -0.1666392
-0.27263555 -0.42506912 0.3436218 -0.40803424 -0.43042386 -0.21092786 -0.05356649 -0.03941277
-0.46975952 -0.112716086 -0.4145585 0.16890068 -0.14994174 0.22809462 -0.23132436 -0.43641898
0.4533661 -0.22718784 -0.23580347 0.25393173 -0.40559638 0.031749777 -0.27385283 -0.4356851
0.13325341 0.23675217 0.5606098 0.045161884 0.013982585 -0.29488444 -0.13717003 0.29778233
0.44368157 0.27960372 0.111595266 -0.3718657 -0.29576722 -0.14040935 0.52086675 0.53338844
0.42500934 -0.54323936 0.44754726 0.17117661 0.6113124 -0.18073976 -0.3315879 0.21968035
0.53326446 -0.40019035 0.11263539 -0.47668064 -0.4678538 0.78511786 0.33889392 0.6524723
-0.047760893 0.38455823 -0.04050002 -0.055792484 0.017510232 0.6587996 -0.11674547 0.3123
0.12040602 -0.6919494 0.5675718 0.052955642 0.17570955 0.41258636 0.28513765 -0.26996464
0.2783464 -0.00021688445 0.09896737 -0.29895067 -0.7248182 -0.12101071 0.33282784 0.5786164
-0.029361837 -0.42859465 1.0659333 0.1725883 0.6206348 0.044977523 -0.3403884 0.1995649
1.036119 -0.011459121 -0.1443652 -0.55563 -0.21965039 0.60532206 0.43138918 0.3083932
0.55107945 -0.47833776 -0.21477087 -0.39253694 0.0462259 -0.22206013 -0.08669294 0.23230463
-0.30082348 0.23788829 0.6290559 -0.07836742 -0.12406026 -0.42309916 -0.034936417 0.12664941
-0.09238886 -0.102993436 0.083542176 0.080270395 -0.31683204 0.052561913 0.15840468 0.36690003
-0.049927443 -0.3741643 0.56697065 0.13530494 0.75342184 0.4109189 0.009634873 0.017508417
0.55688256 -0.46554226 0.4515414 -0.22010294 -0.11533916 0.9152509 0.26137486 0.048225425
-0.096027 -0.37826055 -0.050676215 -0.3448946 -0.38637248 -0.10889317 -0.027534954 0.29214236
-0.12268636 -0.4036184 -0.4982028 -0.3504784 -0.23868962 -0.026365781 -0.21561727 0.36623138
-0.46802264 -0.05080253 -0.1854672 -0.02118714 0.67477304 0.6651002 0.06409249 -0.014973367
0.5236254 0.35940486 -0.67141217 0.34907442 -0.60655904 0.68801236 0.7553716 0.6085437
-0.9217823 0.82845664 0.348114 0.15001398 0.61982805 -0.39273417 0.26233402 -0.44899383
00000000: 394e 08bc b5ee 153e 578b 063e ae84 063f
00000010: c220 b23e eb2f e63e 1765 733e f004 e13e
00000020: 5a5f 343d 84d7 d83e 692b 593f d226 163f
00000030: 3ec3 753d fbfa ad3c baa2 bb3e e5e1 be3e
00000040: 1af2 d33e d316 ff3e eba6 e33e fe94 6b3e
00000050: 6499 bb3d db31 273e 3b23 69bd 77a3 2abe
00000060: e396 8bbe a9a2 d9be 32ef af3e dde9 d0be
00000070: 8460 dcbe 79fd 57be 8968 5bbd 496f 21bd
00000080: 5284 f0be b1d7 e6bd 0341 d4be 4df4 2c3e
00000090: 548a 19be a391 693e 4be0 6cbe 4f72 dfbe
000000a0: 9a1f e83e eea3 68be 7776 71be 5703 823e
000000b0: 54aa cfbe 0e0c 023d 7036 8cbe 1e12 dfbe
000000c0: 9573 083e 296f 723e 2084 0f3f abfb 383d
000000d0: 3617 653c 18fb 96be 4d76 0cbe ed76 983e
000000e0: 3b2a e33e 3828 8f3e 0f8c e43d 2e65 bebe
000000f0: cd6e 97be 78c7 0fbe 8657 053f 258c 083f
00000100: d39a d93e bc11 0bbf ea24 e53e ec48 2f3e
00000110: f87e 1c3f d813 39be e4c5 a9be e3f3 603e
00000120: 0584 083f c0e5 ccbe 62ad e63d 7c0f f4be
00000130: 898a efbe 7cfd 483f 8183 ad3e 6d08 273f
00000140: eda0 43bd d1e4 c43e 59e3 25bd a986 64bd
00000150: 9e71 8f3c 17a7 283f 4018 efbd c9e5 9f3e
00000160: 6e97 f63d 9923 31bf 634c 113f 04e8 583d
00000170: 34ed 333e 853e d33e 90fd 913e ce38 8abe
00000180: 6b83 8e3e 7a6b 63b9 68af ca3d 1010 99be
00000190: b08d 39bf 77d4 f7bd 6968 aa3e 3420 143f
000001a0: 3c88 f0bc c270 dbbe 8170 883f fdba 303e
000001b0: ece1 1e3f 5a3a 383d 6347 aebe be5a 4c3e
000001c0: 8c9f 843f 09bf 3bbc 79d4 13be c53d 0ebf
000001d0: 08ec 60be 63f6 1a3f 0bdf dc3e b7e5 9d3e
000001e0: 8b13 0d3f b0e8 f4be e5ec 5bbe 9afa c8be
000001f0: 5f57 3d3d bb63 63be 118c b1bd 44e1 6d3e
00000200: 8905 9abe fd98 733e cf09 213f 197f a0bd
00000210: 4e13 febd 74a0 d8be 7d19 0fbd 62b0 013e
00000220: 5f36 bdbd 39ee d2bd 2918 ab3d ce64 a43d
00000230: cf37 a2be 294b 573d d634 223e 52da bb3e
00000240: b880 4cbd 7792 bfbe fd24 113f 618d 0a3e
00000250: 41e0 403f f663 d23e 96db 1d3c d06d 8f3c
00000260: db8f 0e3f 8e5b eebe 6f30 e73e aa62 61be
00000270: f036 ecbd e24d 6a3f edd2 853e 0688 453d
00000280: cea9 c4bd 5eab c1be dd91 4fbd 0696 b0be
00000290: 9dd2 c5be 6203 dfbd fc90 e1bc af93 953e
000002a0: fc42 fbbd 12a7 cebe 7014 ffbe e871 b3be
000002b0: 0d6b 74be 0dfd d7bc c6ca 5cbe ae82 bb3e
000002c0: aaa0 efbe 5016 50bd 1deb 3dbe a790 adbc
000002d0: edbd 2c3f 0244 2a3f ec42 833d da52 75bc
000002e0: 500c 063f ea03 b83e abe1 2bbf e2b9 b23e
000002f0: 7447 1bbf 9421 303f 0860 413f 85c9 1b3f
00000300: edf9 6bbf bc15 543f 003c b23e 449d 193e
00000310: 0dad 1e3f 7414 c9be a550 863e 85e2 e5be

arith.constant2 f4 [4]
0.18213029 0.0063508977 -0.20348778 -0.20351228
00000000: 5d80 3a3e 311b d03b 1a5f 50be 8665 50be

sequential_1/dense_1_2/Add/ReadVariableOp f4 [10]
0.30339563 -0.181436 -0.0062801354 0.35284328 0.010817227 0.6481114 -0.058663186 0.3700599
-0.08295724 0.24175566
00000000: ac56 9b3e 5cca 39be 98c9 cdbb e0a7 b43e
00000010: bd3a 313c a1ea 253f cf48 70bd 7e78 bd3e
00000020: 7ce5 a9bd cc8e 773e

sequential_1/dense_1/Add/ReadVariableOp f4 [20]
-0.01572665 -0.47428313 0.029486647 0.13459142 0.087701395 0.022805622 -0.080607444 -0.24922195
-0.13946073 -0.1627843 -0.60246295 0.113677695 -0.08532625 0.16220462 -0.04706962 -0.043529175
-0.42124715 -0.10527125 0.09473892 -0.04853891
00000000: 2dd5 80bc 3dd5 f2be fb8d f13c 55d2 093e
00000010: ca9c b33d dbd2 ba3c 8415 a5bd 0a34 7fbe
00000020: cbce 0ebe edb0 26be 033b 1abf dacf e83d
00000030: 87bf aebd f818 263e 13cc 40bd a64b 32bd
00000040: b5ad d7be 7498 d7bd 7b06 c23d bcd0 46bd

sequential_1/dense_1/MatMul f4 [20, 42]
0.2626999 0.10229412 -0.7579893 0.2693788 -0.36796668 0.03075992 -0.20235014 0.2728056
-0.1448312 0.16397241 -0.18492007 0.23186395 -0.14273268 -0.045094308 0.046659738 0.1949106
0.059367985 0.08363883 -0.4200087 0.25194773 0.14488672 -0.16795728 -0.010364238 -0.056137886
0.17706694 -0.14173216 -0.30605155 -0.081188954 0.308889 0.09166906 0.21800725 -0.2252639
0.36679536 -0.13513398 0.11241609 0.18633449 0.22786129 -0.03743055 0.4504736 -0.23952167
0.4895499 -0.014671157 0.22236723 0.2464115 0.23725441 0.17718692 0.11640212 -0.07934118
-0.1802678 -0.05602001 -0.0629346 -0.23299204 -0.44023994 -0.4710426 0.026777245 -0.027400345
0.1926347 0.34035853 0.24489687 0.2159599 -0.26784056 -0.4489372 -0.13358419 0.008430226
-0.02346049 0.21632315 0.08089004 -0.2537124 -0.29103705 -0.09543534 -0.04603296 0.06554957
-0.21642508 0.019040128 -0.20877932 -0.04535478 -0.29463887 -0.07708923 -0.276305 -0.22312517
0.1361748 -0.17897505 0.043970376 0.17463298 0.1935376 0.08727372 -0.20556918 0.36378863
0.023305112 -0.015757568 -0.0028081588 -0.08607909 -0.041688576 -0.025477031 -0.108848184 0.1959692
-0.20869517 0.17761643 0.46647128 -0.18435447 0.6445326 -0.16824509 -0.43616784 0.053512722
-0.09379436 -0.086126566 0.39904723 0.082922414 0.3690891 -0.20385982 -0.28131953 0.013384626
0.010416475 -0.002991775 0.43652704 0.007377608 0.30310738 -0.14939956 -0.102234855 -0.08496107
0.4440888 0.06059648 0.3106313 -0.0031409482 0.6390588 0.15937674 -0.28858128 0.29886216
-0.0047135632 0.04319266 0.04629648 0.101311915 0.025585845 0.14688234 0.016638722 -0.01552379
0.07430937 0.024936838 0.055229034 0.010152175 -0.854981 -0.07543191 0.11168419 -0.7645375
0.22971278 0.043269247 0.0012092143 0.2040204 0.23451097 0.1147313 0.069386 -0.027836168
0.06315429 0.023998145 0.1934755 0.22477572 0.012211693 0.15405384 -0.042767324 0.22599177
-0.04258312 0.013608352 0.17607686 0.031877 0.19689786 -0.03623587 -0.049765896 -0.017762886
-0.22403127 0.1635592 -0.1740672 0.18505561 -0.11108211 -0.27410874 -0.11931856 -0.22443627
-0.06654605 0.026623646 -0.12700827 0.09184186 0.20474383 -0.0060142307 -0.1447624 -0.20136343
-0.06378751 -0.31520554 0.18068174 -0.28972748 0.07987273 -0.24040706 0.028672157 0.12901081
-0.279282 -0.0920837 -0.37563515 -0.26947716 0.024823211 -0.22859381 -0.32136896 -0.37324354
-0.2571355 -0.2383312 -0.33800423 -0.3739831 -0.26203308 -0.23101287 -0.2690047 -0.24743229
0.042070538 -0.019671945 0.0664078 -0.26618364 -0.23579784 -0.026958713 0.109488025 0.23029135
0.18977123 0.24106997 0.11737796 0.5861214 0.26098424 -0.20686287 -0.15130149 0.22327664
-0.042302523 0.092795424 -0.099490434 0.08401242 0.11314948 0.07776928 0.0073473994 0.10299004
0.31349385 0.0884558 -0.016925516 0.081136875 0.36790338 -0.1630635 0.22588155 0.17066148
0.333314 0.19874956 0.24614875 0.041021127 0.2537967 -0.23619272 0.24837127 0.1778012
0.24467167 0.10022895 0.26586437 -0.027969588 0.30602884 0.024585336 -0.12449885 0.41500506
00000000: 9a80 863e 947f d13d 960b 42bf 05ec 893e
00000010: 2166 bcbe 3afc fb3c e034 4fbe 2dad 8b3e
00000020: a14e 14be 62e8 273e b05b 3dbe be6d 6d3e
00000030: 8428 12be cfb4 38bd 481e 3f3d a596 473e
00000040: d82b 733d d64a ab3d 610b d7be 4bff 803e
00000050: 2f5d 143e fefc 2bbe c4ce 29bc d7f0 65bd
00000060: 0951 353e 3c22 11be cab2 9cbe 6546 a6bd
00000070: b326 9e3e fdbc bb3d 4b3d 5f3e 94ab 66be
00000080: 9acc bb3e 9060 0abe 683a e63d 78ce 3e3e
00000090: 7854 693e c750 19bd 7aa4 e63e 2b45 75be
000000a0: 49a6 fa3e 4b5f 70bc 3cb4 633e 4c53 7c3e
000000b0: d2f2 723e 7d70 353e 3c64 ee3d a17d a2bd
000000c0: 1f98 38be 3d75 65bd dbe3 80bd 7795 6ebe
000000d0: 2167 e1be 7f2c f1be f45b db3c b076 e0bc
000000e0: 0842 453e 7943 ae3e 3fc6 7a3e 9824 5d3e
000000f0: 6622 89be 19db e5be 4bca 08be ee1e 0a3c
00000100: 3730 c0bc d183 5d3e ada9 a53d 97e6 81be
00000110: cf02 95be 9b73 c3bd 0f8d 3cbd da3e 863d
00000120: 899e 5dbe 0bfa 9b3c 3fca 55be efc5 39bd
00000130: e8da 96be f5e0 9dbd d977 8dbe ed7a 64be
00000140: 6871 0b3e 3c45 37be 481a 343d fdd2 323e
00000150: b82e 463e 90bc b23d ba80 52be 8142 ba3e
00000160: 5dea be3c 0416 81bc 1609 38bb 3c4a b0bd
00000170: a4c1 2abd 35b5 d0bc cceb debd 26ac 483e
00000180: 30b4 55be 15e1 353e 53d5 ee3e 6bc7 3cbe
00000190: 1700 253f 7148 2cbe 6451 dfbe 2830 5b3d
000001a0: 4217 c0bd 2063 b0bd eb4f cc3e 3ad3 a93d
000001b0: 3ff9 bc3e a1c0 50be 1d09 90be 314b 5b3c
000001c0: dda9 2a3c a811 44bb 7980 df3e ddbf f13b
000001d0: e430 9b3e 33fc 18be 8260 d1bd 1200 aebd
000001e0: 9b5f e33e 0434 783d 110b 9f3e 5ed8 4dbb
000001f0: 5c99 233f a833 233e edc0 93be 7604 993e
00000200: 3c74 9abb c9ea 303d 61a1 3d3d 9f7c cf3d
00000210: 6899 d13c 5368 163e ee4d 883c 7f57 7ebc
00000220: 832f 983d 5748 cc3c d737 623d 4f55 263c
00000230: 09e0 5abf 0c7c 9abd aeba e43d bbb8 43bf
00000240: d439 6b3e 183b 313d 807e 9e3a b9ea 503e
00000250: a523 703e 3ef8 ea3d 3f1a 8e3d ad08 e4bc
00000260: 0957 813d c297 c43c 711e 463e 9b2b 663e
00000270: 8e13 483c 4ac0 1d3e ca2c 2fbd 636a 673e
00000280: a36b 2ebd 91f5 5e3c 7e4d 343e 7591 023d
00000290: 989f 493e 106c 14bd 53d7 4bbd 7983 91bc
000002a0: 7468 65be 107c 273e ac3e 32be 387f 3d3e
000002b0: 047f e3bd fb57 8cbe 4a5d f4bd 9fd2 65be
000002c0: 4c49 88bd d519 da3c 750e 02be 9617 bc3d
000002d0: 5ea8 513e 0613 c5bb 983c 14be 3732 4ebe
000002e0: 07a3 82bd 9f62 a1be a204 393e 2957 94be
000002f0: 5094 a33d 452d 76be dfe1 ea3c 691b 043e
00000300: 0dfe 8ebe 6196 bcbd 4053 c0be e9f8 89be
00000310: 0c5a cb3c 7f14 6abe 798a a4be c719 bfbe
00000320: 44a7 83be 180d 74be e40e adbe b67a bfbe
00000330: 3329 86be a38e 6cbe fcba 89be e45e 7dbe
00000340: 2852 2c3d 0f27 a1bc d000 883d 3949 88be
00000350: fd74 71be 85d8 dcbc 423b e03d 7fd1 6b3e
00000360: 6453 423e 0cdb 763e db63 f03d 0d0c 163f
00000370: ba9f 853e dcd3 53be c7ee 1abe a2a2 643e
00000380: 6945 2dbd 870b be3d a4c1 cbbd b40e ac3d
00000390: eaba e73d 8045 9f3d 74c2 f03b 71ec d23d
000003a0: 4482 a03e 5128 b53d 61a7 8abc 172b a63d
000003b0: d55d bc3e 1efa 26be 7e4d 673e e2c1 2e3e
000003c0: 22a8 aa3e 0185 4b3e 6b0e 7c3e c505 283d
000003d0: a4f1 813e 81dc 71be 0a55 7e3e 8511 363e
000003e0: 368b 7a3e d644 cd3d 601f 883e 7a20 e5bc
000003f0: d0af 9c3e 3067 c93c 41f9 febd 8b7b d43e
