hand-gesture-recognition/model/keypoint_27nov/keypoint_classifier_pinky_smalldata.tflite (tflite, 6632 bytes, 6 tensors)

arith.constant f4 [4, 10]
0	0xbf2dcc5f	-0.6788997
1	0x3f545b11	0.82951456
2	0xbf381454	-0.7190602
3	0xbe56261d	-0.20912977
4	0xbf469e19	-0.7758499
5	0xbeeaa943	-0.4583226
6	0x3e0de477	0.13856684
7	0x3e6a21c7	0.22864448
8	0xbeca833d	-0.39553252
9	0xbed17586	-0.40909976
10	0xbf488de1	-0.7834149
11	0x3e0be466	0.13661346
12	0x3f20953b	0.6272771
13	0xbe1ff82b	-0.15622012
14	0x3f30a584	0.69002557
15	0xbf35826e	-0.70902145
16	0xbee8f7bb	-0.45501503
17	0x3ed0296f	0.4065661
18	0xbf8b8097	-1.0898618
19	0xbf36e5ea	-0.7144457
20	0xbf0905ec	-0.5352466
21	0xbdfbc1e4	-0.12292841
22	0xbf5f2e29	-0.8717981
23	0x3f485ecd	0.78269655
24	0x3eab5217	0.33461067
25	0x3ea35aee	0.3190531
26	0xbf771fde	-0.96533
27	0xbf7410b7	-0.95338005
28	0xbd9d88be	-0.07692097
29	0xbf00cfb0	-0.50316906
30	0x3f9bf03f	1.2182692
31	0x3dd722c3	0.10504677
32	0x3e844bf4	0.25839198
33	0xbf68ca5e	-0.9093379
34	0xbed016ad	-0.406423
35	0xbf20e5c2	-0.6285058
36	0xbec421ad	-0.38306943
37	0xbf4e39ea	-0.8055712
38	0x3da21bda	0.079154685
39	0x3f6ff244	0.93729043

arith.constant1 f4 [10, 20]
0	0x3e57283a	0.21011439
1	0xbeb10e10	-0.3458104
2	0xbf52a43e	-0.82281864
3	0xbdda4608	-0.10657889
4	0xbe81d8aa	-0.25360614
5	0x3ecc6eb8	0.39928222
6	0xbddfb841	-0.109238155
7	0xbe29e705	-0.16592033
8	0xbe4445aa	-0.191672
9	0x3dee4a1a	0.116352275
10	0x3f1d2d30	0.61397076
11	0xbed06bf1	-0.40707353
12	0x3e3f6b5b	0.18693297
13	0xbf1f74d9	-0.6228767
14	0xbf3af856	-0.7303518
15	0xbeaa7592	-0.33292824
16	0xbf0fbf09	-0.5615087
17	0xbf203bb3	-0.62591094
18	0xbe94772f	-0.2899718
19	0x3e99eb97	0.30062553
20	0x3ebb36a7	0.36565134
21	0x3eff0388	0.49807382
22	0xbdd06c1b	-0.101768695
23	0xbe0ea956	-0.13931784
24	0x3eb109d8	0.34577823
25	0x3f43b796	0.76452005
26	0x3d3fd5de	0.04683482
27	0x3c281c43	0.010260644
28	0x3ee54688	0.44780374
29	0xbdd4e2c2	-0.10394813
30	0x3d946bcf	0.07247125
31	0x3f22ec51	0.6364184
32	0xbf009d34	-0.5023987
33	0xbf441942	-0.7660104
34	0x3ea61fe3	0.32446203
35	0x3e32cecf	0.17461704
36	0xbde9b39e	-0.114112124
37	0xbed1255f	-0.40848824
38	0xbef6cf28	-0.48204923
39	0xbec40622	-0.3828593
40	0x3f1dd568	0.6165376
41	0xbc0e3aef	-0.008681043
42	0xbf0cea8b	-0.55045384
43	0xbcbc8c9f	-0.023016272
44	0xbd4018eb	-0.046898764
45	0x3e99dbb2	0.30050427
46	0x3eb6ee12	0.35728508
47	0x3e65a49e	0.22426078
48	0x3d3bd975	0.04586168
49	0x3f20c728	0.6280389
50	0x3edbebad	0.42953244
51	0x3e431e8a	0.19054618
52	0x3f4542ac	0.7705486
53	0x3e89feb5	0.2695214
54	0x3d50ec74	0.05100675
55	0xbc978a1e	-0.018498477
56	0x3db50122	0.08838107
57	0x3df3edd3	0.11910596
58	0xbc5a445d	-0.013321963
59	0x3c34f4f9	0.011044734
60	0xbf2fab19	-0.6862045
61	0xbe8e0686	-0.27739352
62	0x3e29f4b1	0.16597249
63	0xbec9399f	-0.39301774
64	0x3beb4ecf	0.0071810256
65	0xbeb56e7f	-0.35435864
66	0x3e7ed34d	0.24885292
67	0x3ebc5dd9	0.3679035
68	0xbec2d20a	-0.38050872
69	0xbeebce87	-0.46056005
70	0xbe8bf9ef	-0.27339122
71	0xbf061e1f	-0.5238971
72	0xbf1be8d4	-0.6090214
73	0x3e1a6cd1	0.15080573
74	0x3f1fc0bd	0.6240347
75	0x3e46f354	0.1942876
76	0x3f1a89a3	0.60366267
77	0x3ea3c8a2	0.31989008
78	0x3f1cb5bf	0.6121482
79	0xbe080307	-0.13282405
80	0x3eda7ba6	0.4267246
81	0x3dc472ce	0.0959221
82	0x3eabbc31	0.33542016
83	0xbc0231e0	-0.007946461
84	0x3e142fe6	0.14471397
85	0xbf2b47e8	-0.66906595
86	0x3e0994f1	0.13435723
87	0x3f2bc6c3	0.6710016
88	0xbe3fa1f7	-0.18714128
89	0x3f269e6e	0.65085495
90	0xbe53ec16	-0.20695528
91	0x3df11ab4	0.11772671
92	0x3ee27bd8	0.4423511
93	0x3f3a93a3	0.72881526
94	0x3e6d2127	0.23157178
95	0x3e256866	0.16153106
96	0x3ef3c671	0.47612336
97	0x3f298e9e	0.6623324
98	0x3f705e48	0.9389386
99	0x3f64bbef	0.89349264
100	0xbf56f28b	-0.8396384
101	0xbf0f9852	-0.560918
102	0xbe4a57d1	-0.19760062
103	0xbe36a3d7	-0.17835937
104	0xbf3f1688	-0.74643755
105	0xbe847943	-0.25873765
106	0xbf208f83	-0.6271898
107	0x3eb530c1	0.3538876
108	0xbebea0eb	-0.37232146
109	0xbe897eb7	-0.26854488
110	0xbeb1737f	-0.3465843
111	0xbe019c3e	-0.12657258
112	0xbf43b0e5	-0.76441795
113	0x3ec315ac	0.38102472
114	0x3e07f3cf	0.132766
115	0x3f2f6b2c	0.68522906
116	0xbde3d44b	-0.11124476
117	0x3c87faf1	0.01659915
118	0xbdf10c2c	-0.117699
119	0x3eac7080	0.3367958
120	0xbd802593	-0.06257167
121	0x3e918a2c	0.2842573
122	0xbea86dcf	-0.32896277
123	0x3f1f4d22	0.6222707
124	0x3f0d9dd5	0.5531896
125	0x3f436379	0.7632366
126	0xbdddac24	-0.10823849
127	0xbed6b026	-0.41931266
128	0x3ee56421	0.44802955
129	0x3d0d7d8a	0.03454355
130	0x3f01a214	0.50637937
131	0x3c96f919	0.018429326
132	0xbf057c70	-0.52143
133	0xbece49fe	-0.40290827
134	0x3ec5bc21	0.38620093
135	0x3e53f1a4	0.20697647
136	0xbe982246	-0.2971365
137	0xbecc3d99	-0.39890745
138	0xbe334304	-0.17506033
139	0xbe1dd8e2	-0.15414765
140	0x3f062782	0.52404034
141	0x3f7bddd5	0.98385364
142	0x3eb40d52	0.35166413
143	0x3f67c9a0	0.9054203
144	0x3f661c08	0.8988652
145	0x3ee9e072	0.4567905
146	0x3f17445d	0.5908869
147	0x3e68f6d8	0.22750413
148	0x3f1b4ffe	0.60668933
149	0x3f12d9f3	0.57363814
150	0x3d2d567d	0.04231881
151	0x3f49923e	0.7873877
152	0x3ee8eded	0.45494023
153	0x3eb6fd7f	0.35740277
154	0x3ee43d9e	0.4457826
155	0x3e83e558	0.25760913
156	0x3d043592	0.03227765
157	0x3db009bb	0.08595606
158	0x3d637b25	0.05553736
159	0xbe06dd78	-0.13170421
160	0x3ee265f7	0.44218418
161	0xbf035184	-0.5129626
162	0x3d924d69	0.07143671
163	0xbf1fdfc7	-0.6245083
164	0xbee23e17	-0.44187996
165	0x3f16dfba	0.5893513
166	0x3e822b7f	0.2542381
167	0x3e2b8f69	0.16753925
168	0xbe757bd9	-0.23973025
169	0xbea8c29d	-0.32960978
170	0x3ed3bd37	0.41355297
171	0xbdc82da4	-0.0977433
172	0xbeb5360a	-0.3539279
173	0x3e23f489	0.16011252
174	0x3d8bfd53	0.06835427
175	0xbf8337fb	-1.0251459
176	0xbcbfaa83	-0.023396736
177	0x3e52da87	0.20591174
178	0xbd0adf0c	-0.03390412
179	0x3db8fb1f	0.090322725
180	0x3ee7f91d	0.45307246
181	0xbe807c7a	-0.25094968
182	0xbe8d4651	-0.2759271
183	0xbef18b9f	-0.47176835
184	0xbe97c0a3	-0.29639158
185	0x3eedd8f6	0.4645459
186	0xbe93281f	-0.28741547
187	0xbf48ab0e	-0.7838601
188	0x3e96e0bc	0.29468334
189	0xbdc410aa	-0.09573491
190	0x3f1baa37	0.608066
191	0xbd82e8eb	-0.06392082
192	0x3f3747d7	0.71593994
193	0xbeb5a983	-0.3548089
194	0xbe93a2a5	-0.28835025
195	0xbf14d8a8	-0.5814309
196	0xbf0c2c67	-0.5475525
197	0xbed31a31	-0.4123092
198	0x3e8a2f91	0.26989415
199	0x3eb19773	0.3468586

sequential_3_1/dense_10_1/BiasAdd/ReadVariableOp f4 [10]
0	0x3f15777d	0.5838545
1	0x3f32b1a0	0.69802284
2	0xbe0c7712	-0.13717297
3	0x3ed73d0a	0.42038757
4	0xbe372c7b	-0.17888062
5	0x3ee7c201	0.452652
6	0x3ecdc116	0.40186375
7	0xbb278986	-0.0025564148
8	0x3f18631a	0.59526217
9	0x3ef679ed	0.48139897

sequential_3_1/dense_11_1/BiasAdd/ReadVariableOp f4 [4]
0	0x3ebbb07e	0.3665809
1	0xbec32230	-0.3811202
2	0x3e755858	0.23959482
3	0xbe5ec1f7	-0.21753679

sequential_3_1/dense_9_1/BiasAdd/ReadVariableOp f4 [20]
0	0xbd19fad0	-0.03759271
1	0x3d8ba0fb	0.06817814
2	0xbf0f212b	-0.55909985
3	0xbe49aa9b	-0.19693987
4	0xbe6a47ac	-0.22878903
5	0xbe0feeb7	-0.14055906
6	0xbf035089	-0.5129476
7	0xbe4349b4	-0.19071084
8	0xbe98c4c2	-0.29837614
9	0xbeed3c97	-0.4633529
10	0xbea326cf	-0.31865546
11	0xbe0a42b3	-0.13502006
12	0xbeb9e763	-0.36309347
13	0xbee4b19c	-0.44666755
14	0x3e80fec9	0.25194386
15	0x3ecfc196	0.40577382
16	0xbe1f00fd	-0.15527721
17	0xbe85e81e	-0.26153654
18	0xbeb7c85e	-0.35895056
19	0xbe4b9feb	-0.19885223

sequential_3_1/dense_9_1/MatMul f4 [20, 42]
0	0x3d411ca0	0.04714644
1	0x3e6939a8	0.227759
2	0x3f062c5b	0.5241143
3	0x3e24034f	0.16016887
4	0x3e65aea3	0.224299
5	0x3e9437c7	0.28948805
6	0x3f11f316	0.57011545
7	0x3e5679a1	0.20944835
8	0x3e8bcae0	0.2730322
9	0x3e5f2db5	0.2179478
10	0x3ef5f140	0.48035622
11	0x3e92a228	0.2863934
12	0x3e51fe28	0.20507109
13	0x3d2564cf	0.04037934
14	0xbdc55b8e	-0.09636603
15	0xbb88f13f	-0.0041791494
16	0xbdb2c644	-0.087292224
17	0xbe502199	-0.20325316
18	0x3e801c27	0.2502148
19	0x3e699665	0.22811277
20	0x3dbf2cea	0.093347386
21	0x3def3206	0.11679463
22	0xbb551262	-0.0032512178
23	0xbe751185	-0.23932464
24	0xbd883c48	-0.06652123
25	0xbd21128c	-0.03932433
26	0x3e4ae560	0.19814062
27	0x3eb56336	0.35427254
28	0x3dc41ba7	0.09575587
29	0x3ec07395	0.37588182
30	0xbe8fd60b	-0.2809299
31	0x3e17abbe	0.14811608
32	0xbe598e5e	-0.21245715
33	0x3cbcd424	0.023050375
34	0xbda981f9	-0.082767434
35	0x3ec7fa73	0.39058265
36	0x3c309f34	0.0107801445
37	0x3efc17f3	0.49237022
38	0xbcc0215a	-0.023453403
39	0x3ec6e00c	0.3884281
40	0xbe96a1e0	-0.29420376
41	0x3effe5f3	0.49980125
42	0x3e933c2e	0.2875685
43	0xbe9ee138	-0.31031203
44	0x3e8fdbc1	0.28097346
45	0x3dc5a35c	0.09650299
46	0x3e6d3542	0.23164847
47	0x3d30a123	0.043122422
48	0x3d73cd82	0.05952216
49	0x3d47ee05	0.048810977
50	0xbe9ec4a9	-0.31009415
51	0x3e5c2431	0.21498181
52	0x3e73e093	0.23816137
53	0x3e013c4c	0.12620658
54	0x3e8bc2ad	0.27296963
55	0xbd4abeee	-0.04949849
56	0x3d9b7303	0.07590296
57	0x3d2aff1d	0.0417472
58	0x3ab6d118	0.0013947813
59	0x3e21b25a	0.15790692
60	0xbda00ca7	-0.07814913
61	0x3dd98c15	0.10622422
62	0xbdc93f82	-0.09826566
63	0x3dc7203c	0.09722945
64	0x3e888270	0.26662016
65	0xbccb8a19	-0.024846124
66	0x3e296746	0.16543302
67	0xbe998c78	-0.29989982
68	0xbdd78e8a	-0.10525234
69	0x3dd209a9	0.10255749
70	0xbdde1243	-0.10843327
71	0xbda31962	-0.07963826
72	0x3e03f5ee	0.12886783
73	0xbf13fdb1	-0.5780898
74	0x3d00f2ce	0.031481557
75	0xbf6050ca	-0.87623274
76	0xbe951d1e	-0.29123777
77	0x3dadc9ca	0.08485754
78	0xbe675046	-0.22589216
79	0xbd5115ce	-0.051046185
80	0xbd525b01	-0.05135632
81	0xbea569fc	-0.32307422
82	0xbe96fa7a	-0.29487973
83	0xbea5347b	-0.32266602
84	0xbe0fa32a	-0.14027086
85	0x3e94dbc4	0.29073918
86	0xbe84c19d	-0.25928965
87	0xbef98c5a	-0.48739892
88	0xbebbce03	-0.36680612
89	0xbef971fb	-0.48719773
90	0xbeadeb51	-0.33968595
91	0xbf32f80c	-0.6990974
92	0xbea4901a	-0.3214119
93	0xbe35a243	-0.17737679
94	0x3c093723	0.008374962
95	0xbe9d2a46	-0.30696315
96	0x3daab52b	0.08335336
97	0xbe97e340	-0.29665565
98	0x3e411a93	0.18857794
99	0x3e256070	0.16150069
100	0x3cb957eb	0.02262493
101	0x3ecb0cf5	0.39658323
102	0xbe1ab341	-0.15107442
103	0xbe9bbe91	-0.30418828
104	0x3e1d98fd	0.15390392
105	0xbf295671	-0.66147524
106	0x3d7575bb	0.05992673
107	0xbe40b47e	-0.18818852
108	0x3cb4c7a3	0.02206785
109	0x3e8ed1f5	0.2789456
110	0xbe1c22d7	-0.15247665
111	0xbe83cb0e	-0.25740856
112	0x3ea81dfe	0.32835382
113	0xbec31c50	-0.38107538
114	0xbd4e1a2d	-0.050317932
115	0xbdb12e79	-0.08651442
116	0x3dca22b6	0.09869902
117	0x3ee30a26	0.4434368
118	0x3e52c7fc	0.205841
119	0xbea916f6	-0.3302533
120	0xbe1f4c1a	-0.15556374
121	0xbeb2b400	-0.34902954
122	0xbd4f54f8	-0.050618142
123	0xbd9b6d91	-0.075892575
124	0xbe6095ad	-0.21932097
125	0x3e997cd3	0.29978046
126	0xbe95f97f	-0.29291913
127	0xbc20b8c0	-0.009809673
128	0x3ec00cf7	0.3750989
129	0x3e4d2eb7	0.20037352
130	0x3eab8c47	0.3350546
131	0x3e7a8913	0.24466352
132	0x3df93f86	0.12170319
133	0x3ebb2e3a	0.36558706
134	0x3ec0341b	0.37539753
135	0x3e28745d	0.16450639
136	0x3da946c7	0.08265453
137	0x3dfd8f3b	0.12380835
138	0xbb20f4f7	-0.0024560073
139	0xbdf64b7a	-0.12026115
140	0x3da5e794	0.08100811
141	0x3acdeee6	0.0015711456
142	0x3e5bdb95	0.21470483
143	0x3e345d40	0.17613697
144	0xbc681d26	-0.014167106
145	0xbd10986a	-0.035301603
146	0x3e361716	0.17782244
147	0xbe926536	-0.28592843
148	0x3da74736	0.08167879
149	0xbe6df23a	-0.23236933
150	0xbeb82bcd	-0.35970917
151	0xbf308c74	-0.68964314
152	0xbdb3ff7f	-0.087889664
153	0xbc089597	-0.008336446
154	0xbe36603c	-0.17810148
155	0xbdb55c47	-0.08855491
156	0xbecac22b	-0.39601263
157	0xbee21347	-0.44155332
158	0xbf2bc45b	-0.6709649
159	0xbe913b69	-0.2836564
160	0xbea67335	-0.3250977
161	0x3da69a1c	0.08134863
162	0xbe6a144c	-0.22859305
163	0xbe0ebc89	-0.13939108
164	0xbefe9379	-0.49721888
165	0xbeb30dc5	-0.34971443
166	0xbf032de5	-0.51241904
167	0xbd8eca22	-0.069721475
168	0xbd2a0280	-0.04150629
169	0x3dd77804	0.10520938
170	0x3eeafc07	0.45895407
171	0x3d9823db	0.07428714
172	0x3e88c9a1	0.2671633
173	0x3dd6980e	0.10478221
174	0x3da978ce	0.08274995
175	0x3e8d0b5f	0.27547738
176	0x3e7634de	0.24043605
177	0x3e4efe2e	0.2021415
178	0x3d1f81e2	0.038942225
179	0x3e0432df	0.12910031
180	0x3d9be115	0.0761129
181	0x3dbff291	0.09372438
182	0x3e06daa3	0.13169341
183	0x3cbb8f1b	0.022895386
184	0x3e33f84b	0.17575185
185	0xbd59a7e6	-0.053138636
186	0xbdb7f01e	-0.089813456
187	0x3df5cf6c	0.12002453
188	0xbd897cd7	-0.067132644
189	0xbd1d76c5	-0.038443346
190	0xbe80bcb7	-0.25143978
191	0xbeccd0b1	-0.4000297
192	0xbe60dcb4	-0.21959192
193	0xbeea1819	-0.4572151
194	0xbe95cf5b	-0.29259762
195	0x3df175f5	0.11790077
196	0xbe2c4c50	-0.16825986
197	0xbe28c0ae	-0.16479751
198	0xbea65906	-0.32489794
199	0xbd95d181	-0.0731535
200	0xbe45c657	-0.19313942
201	0xbf011c71	-0.50434023
202	0xbe505523	-0.20344977
203	0x3d90c31a	0.07068463
204	0x3daf30bf	0.085542195
205	0xbcc1e161	-0.02366704
206	0xbf013f04	-0.5048678
207	0xbeb80a22	-0.3594523
208	0xbebf8331	-0.3740478
209	0xbf240f70	-0.64086056
210	0x3dbc56e8	0.091962636
211	0x3d86cf04	0.06582454
212	0xbe8fdb0d	-0.2809681
213	0xbe96c2ca	-0.29445487
214	0xbe03b9d8	-0.12863863
215	0xbe741905	-0.23837669
216	0xbe767566	-0.24068221
217	0xbe05af5f	-0.1305518
218	0xbdc29f75	-0.0950307
219	0xbd3aa85d	-0.04557072
220	0x3d6086f3	0.054816198
221	0x3e944524	0.28959
222	0xbe3522e0	-0.17689085
223	0xbd4bf8cd	-0.04979782
224	0x3d231623	0.039816033
225	0x3df418dd	0.11918805
226	0x3db732d8	0.089452446
227	0xbde42f10	-0.11141789
228	0xbe146f02	-0.14495471
229	0x3ef30128	0.4746182
230	0x3d2c5469	0.042072687
231	0xbdc32862	-0.09529187
232	0x3cb8bc2a	0.022550661
233	0xbc076973	-0.008264887
234	0x3eb8b8d8	0.36078525
235	0x3d9558b0	0.072923064
236	0xbe412066	-0.18860015
237	0x3ea80259	0.3281429
238	0xbdda0440	-0.10645342
239	0x3eaac6f0	0.33354902
240	0x3e3294eb	0.1743962
241	0x3e1921ef	0.14954351
242	0x3df55e45	0.11980871
243	0x3eba63ba	0.3640421
244	0xbe9baa3c	-0.30403316
245	0x3f048692	0.5176784
246	0xbe173258	-0.14765298
247	0x3d54459d	0.0518242
248	0x3eae79b0	0.34077215
249	0x3e69e0ff	0.22839735
250	0x3e8c258d	0.273724
251	0x3f06b125	0.5261405
252	0x3e3c3c0a	0.18382278
253	0xbe56828c	-0.20948237
254	0xbda9e797	-0.082961254
255	0xbecad934	-0.39618838
