hand-gesture-recognition/model/keypoint_27nov/keypoint_classifier_pinky 2.tflite (tflite, 6556 bytes, 6 tensors)

arith.constant f4 [4, 10]
0	0xbf120b20	-0.57048225
1	0xbf086656	-0.5328115
2	0x3f4d6bed	0.80242807
3	0x3e816ab6	0.25276726
4	0xbf02c987	-0.51088756
5	0xbe6a7110	-0.22894692
6	0x3f72b381	0.9480515
7	0x3e83fd91	0.25779393
8	0xbf234562	-0.63777745
9	0x3f4031da	0.7507607
10	0x3e7d28e1	0.24722625
11	0x3f8f98b0	1.1218472
12	0x3e37ac90	0.17936921
13	0x3f3ebf35	0.7451051
14	0x3f292a55	0.6608022
15	0xbf56e677	-0.8394541
16	0x3d81e7f6	0.06343071
17	0x3f6ec5f2	0.9327079
18	0xbe91872e	-0.28423446
19	0x3e549b7a	0.20762435
20	0x3ef26ba7	0.47347757
21	0xbf780173	-0.9687721
22	0x3dc7cd6c	0.09755978
23	0x3f1f57bc	0.6224325
24	0xbf69afd7	-0.91283935
25	0xbf9cfdc8	-1.2264948
26	0x3e51ae33	0.20476608
27	0xbf0c185d	-0.54724675
28	0x3f86396a	1.0486271
29	0xbf1cff57	-0.6132712
30	0xbf8758c9	-1.057397
31	0x3e55f5c1	0.20894529
32	0xbfe03459	-1.7515975
33	0xbf23a52c	-0.6392391
34	0xbf308447	-0.6895184
35	0x3f5c5316	0.8606428
36	0xbf8de8b2	-1.1086638
37	0x3e9327cd	0.28741303
38	0xbe8f19ad	-0.27949277
39	0x3e89e674	0.26933634

arith.constant1 f4 [10, 20]
0	0xbdcc8f25	-0.0998824
1	0x3d67966e	0.056539945
2	0xbe01744f	-0.12642024
3	0xbf15fb94	-0.58587
4	0x3ed43d95	0.41453233
5	0x3f04a255	0.518102
6	0xbebd2ccd	-0.36948243
7	0xbedf60b5	-0.4362847
8	0xbdcd6092	-0.10028185
9	0x3e313a5d	0.1730742
10	0x3d961d7d	0.07329843
11	0xbef30339	-0.47463396
12	0x3e6ef35b	0.2333502
13	0x3f1bc7af	0.6085157
14	0x3e1b1963	0.15146403
15	0x3ed55ab7	0.41670772
16	0x3efb71de	0.4911031
17	0x3ef9ab78	0.48763633
18	0xbeaa2fc4	-0.33239567
19	0x3f27689a	0.65393984
20	0x3e4fb804	0.2028504
21	0x3e9915bd	0.29899397
22	0x3f6d9f88	0.9282155
23	0xbca7bd7d	-0.020476097
24	0x3f1a196e	0.6019505
25	0xbd3f8ca2	-0.046764977
26	0x3e6c00bf	0.2304716
27	0x3e4fd657	0.20296608
28	0x3e93fed5	0.2890536
29	0x3de25ee7	0.110532574
30	0x3e49d6e6	0.19710883
31	0xbead4c61	-0.33847335
32	0x3dff5a47	0.12468391
33	0xbf33ab71	-0.70183474
34	0x3e34413d	0.17603011
35	0x3e1f5bdf	0.1556239
36	0xbefdf7dc	-0.49603164
37	0x3f1c3bea	0.6102892
38	0xbd913d04	-0.07091716
39	0x3f4dcbaa	0.8038889
40	0x3ed771d6	0.42079037
41	0x3f2b59c6	0.6693386
42	0xbe689d66	-0.22716293
43	0x3f488c88	0.78339434
44	0xbcfb57f5	-0.03068159
45	0x3eb0714c	0.3446144
46	0x3d55d6b1	0.0522067
47	0x3c9be055	0.019027868
48	0x3f2643ae	0.6494702
49	0x3ecbbb7b	0.39791474
50	0x3f40d9f2	0.7533256
51	0x3d3da3f5	0.04629894
52	0x3f7ec077	0.9951243
53	0xbb880703	-0.0041512265
54	0x3d5ee1e1	0.054414634
55	0x3f02da77	0.511146
56	0x3ea5aa95	0.32356706
57	0x3e608a6c	0.21927804
58	0xbc1f261f	-0.009713679
59	0x3e3ea36e	0.18617031
60	0x3d14e611	0.03635222
61	0xbda568ac	-0.08076605
62	0x3ebf681b	0.37384114
63	0xbe9f9d79	-0.3117483
64	0xbe9d214d	-0.3068947
65	0x3f057dd7	0.5214514
66	0xbe9c90a5	-0.30579105
67	0xbd7a79c3	-0.061151277
68	0xbd75f69f	-0.06004965
69	0x3e04f367	0.12983476
70	0xbe374af7	-0.1789969
71	0xbdb44927	-0.08803015
72	0x3f820efd	1.0160824
73	0x3f3e8446	0.74420583
74	0x3d9bf133	0.076143645
75	0x3e2e88dd	0.17044397
76	0x3f41b666	0.7566894
77	0x3f2cdefd	0.67527753
78	0x3d84408f	0.06457626
79	0x3f21590d	0.63026506
80	0x3ed6b433	0.41934356
81	0xbd4f084f	-0.050545033
82	0x3f1a9186	0.603783
83	0x3eb7cbd5	0.358977
84	0xbe0cdd94	-0.137564
85	0xbe58cefd	-0.2117271
86	0x3c9fe850	0.019519955
87	0xbeae6b8a	-0.3406642
88	0x3d463647	0.048391607
89	0x3e0da205	0.13831337
90	0xbe233310	-0.15937448
91	0xbe8eeb36	-0.27913827
92	0x3ec50f9a	0.38488466
93	0x3d830ea7	0.06399279
94	0xbf35c083	-0.70996875
95	0x3ea44631	0.32084802
96	0x3f50c1ce	0.8154572
97	0x3ef56149	0.47925785
98	0x3ebf5d39	0.3737581
99	0x3f0968c3	0.5367548
100	0x3ecd6347	0.40114805
101	0xbf86fb79	-1.0545493
102	0xbc85ca89	-0.016331928
103	0x3e4fd355	0.2029546
104	0x3d61cf84	0.055129543
105	0x3d6b8831	0.05750293
106	0x3ed29843	0.4113179
107	0x3f730ef7	0.9494471
108	0xbec89e94	-0.39183486
109	0xbe76e8db	-0.24112265
110	0x3e9a944c	0.30191267
111	0x3f44cc11	0.7687388
112	0x3e3d1334	0.18464357
113	0xbec4123d	-0.38295165
114	0x3f200212	0.6250316
115	0xbeb0ae4f	-0.34507987
116	0xbe83bc4e	-0.25729603
117	0xbf66b652	-0.9012195
118	0x3f542ba6	0.828791
119	0xbe8bc929	-0.2730191
120	0x3ef6092e	0.4805388
121	0x3f136eac	0.57590747
122	0xbf46335d	-0.77422124
123	0x3e1c7d92	0.15282276
124	0xbf19e7b0	-0.6011915
125	0x3ed3531c	0.41274345
126	0x3f41a9b6	0.75649583
127	0xbd2ad917	-0.04171094
128	0x3ec25075	0.3795201
129	0x3eda6fbe	0.42663378
130	0x3e97c73d	0.29644194
131	0x3c3354c0	0.010945499
132	0x3e12fcad	0.143542
133	0x3eac456a	0.3364671
134	0x3db36430	0.087593436
135	0x3e5a3140	0.2130785
136	0x3eac043e	0.33596987
137	0xbecae2b9	-0.396261
138	0x3e157fe8	0.14599574
139	0xbd2c6060	-0.042084098
140	0xbdd4c6db	-0.10389491
141	0x3bbbe1fb	0.005733726
142	0xbd009d4b	-0.031400006
143	0x3dd49253	0.10379472
144	0x3f412582	0.7544786
145	0xbd86a133	-0.06573715
146	0xbd470297	-0.048586454
147	0x3e5ad2ed	0.21369524
148	0x3e60ffcf	0.21972583
149	0x3e3c8654	0.18410617
150	0x3e5cd4a9	0.21565498
151	0x3d9eadcc	0.07747993
152	0xbdd932b3	-0.10605373
153	0x3efa192a	0.48847324
154	0x3e88700d	0.26647988
155	0xbe09830a	-0.13428894
156	0x3edf2402	0.4358216
157	0x3e800044	0.25000203
158	0x3f6af5b3	0.9178116
159	0xbe3fb8de	-0.18722865
160	0xbf2b4efb	-0.6691739
161	0xbf4d4f45	-0.8019908
162	0xbed878a9	-0.42279556
163	0xbf6080e4	-0.8769667
164	0xbe0e730a	-0.13911071
165	0x3f0043e7	0.5010361
166	0xbf214789	-0.6299978
167	0xbf8e5acb	-1.1121458
168	0xbf491bef	-0.7855825
169	0x3eb073e4	0.34463418
170	0xbf43f460	-0.7654476
171	0xbf0b68d5	-0.54456836
172	0x3f030a87	0.5118794
173	0xbde86d98	-0.11349028
174	0x3ef17043	0.4715596
175	0x3ed88c3e	0.42294496
176	0x3eb7560e	0.35807842
177	0x3dc1d307	0.094640784
178	0xbee055c9	-0.4381545
179	0xbe53e1f3	-0.20691662
180	0x3ef4d9a1	0.47822288
181	0x3f2fe11f	0.6870288
182	0xbe829188	-0.25501657
183	0x3f92bb12	1.1463339
184	0x3e8c4b03	0.2740098
185	0xbd31d780	-0.043418407
186	0x3f236e08	0.6383977
187	0x3f59ee26	0.8512901
188	0x3f8261e6	1.0186126
189	0x3d9bf0a9	0.07614262
190	0x3eaefda4	0.34177887
191	0x3f554143	0.83302706
192	0xbc7cea6b	-0.015436749
193	0x3e89ae4e	0.26890796
194	0xbcaba4c9	-0.0209526
195	0x3ecf4cb9	0.40488222
196	0xbed191a8	-0.4093144
197	0xbf148c07	-0.58026165
198	0x3e9a5f7a	0.30150968
199	0x3e21dbff	0.15806578

arith.constant2 f4 [4]
0	0x3d8292b1	0.063756354
1	0xbf1124de	-0.5669688
2	0x3f0cfe20	0.55075264
3	0x3de7a59d	0.11310885

sequential_1/dense_1_2/BiasAdd/ReadVariableOp f4 [10]
0	0x3eb141c1	0.3462048
1	0x3db37d46	0.087641284
2	0x3e0af8c9	0.13571467
3	0x3e23a101	0.15979387
4	0xbeb19f12	-0.34691674
5	0x3ea57052	0.32312256
6	0x3e3ed2b1	0.1863506
7	0xbee31f51	-0.4435983
8	0x3f22b79b	0.6356141
9	0xbe082f15	-0.1329921

sequential_1/dense_1/BiasAdd/ReadVariableOp f4 [20]
0	0xbec241b1	-0.37940744
1	0xbe98ba52	-0.2982965
2	0xbf3ab622	-0.7293416
3	0xbef2e3ff	-0.47439572
4	0xbf1c3069	-0.6101137
5	0xbeaa5161	-0.33265212
6	0xbed9d5d5	-0.42545953
7	0xbf19cb96	-0.6007627
8	0xbeccf867	-0.40033266
9	0x3f261d72	0.6488868
10	0xbeb02a1a	-0.3440712
11	0xbf1613bf	-0.5862388
12	0x3c7c1680	0.015386224
13	0xbf1e59b0	-0.618556
14	0x3e8ea2af	0.27858493
15	0xbafab70f	-0.0019128042
16	0xbec1183c	-0.37713802
17	0xbf2800d6	-0.65626276
18	0xbf312f6e	-0.69212997
19	0xbf545823	-0.82946986

sequential_1/dense_1/MatMul f4 [20, 42]
0	0x3dfdfa94	0.124013096
1	0x3e0fd2e0	0.14045286
2	0x3dafba8c	0.08580503
3	0x3f13a958	0.57680273
4	0x3da0bcc3	0.078485034
5	0x3e9594c4	0.29215062
6	0x3e6527f3	0.2237852
7	0x3d91a6b1	0.07111872
8	0x3d6c5f0f	0.057707842
9	0x3e4f81a8	0.20264304
10	0xbe1e72ea	-0.15473524
11	0xbdaf40ec	-0.08557305
12	0xbd8a7c81	-0.067620285
13	0x3d39c5a4	0.0453545
14	0x3dd36552	0.1032206
15	0x3d546370	0.051852643
16	0x3db31b91	0.08745492
17	0x3d7094c8	0.05873564
18	0xbc4fe806	-0.012689596
19	0xbd7503a2	-0.059817918
20	0xbcdfcf0d	-0.02732041
21	0x3e0a13d5	0.13484128
22	0xbdfa5fb6	-0.12225287
23	0xbdfb30fb	-0.12265202
24	0xbe28baf7	-0.16477571
25	0xbf0a5a63	-0.5404417
26	0xbc9e9870	-0.019359797
27	0xbd7b87a3	-0.06140865
28	0xbcf14cc7	-0.029455556
29	0x3d705990	0.058679163
30	0x3dd2c718	0.1029188
31	0xbea5e3bb	-0.32400307
32	0xbe8dd97e	-0.27704996
33	0xbf24b842	-0.64343655
34	0x3e020b84	0.12699705
35	0x3d2149f4	0.039377168
36	0xbdbc2f1b	-0.09188672
37	0x3dd9d156	0.10635631
38	0x3d440c56	0.047863327
39	0xbde27be3	-0.11058786
40	0xbec83cfd	-0.3910903
41	0xbf0156c8	-0.5052304
42	0x3e6a4188	0.2287656
43	0xbe1a19f1	-0.15048958
44	0xbbdd2d0f	-0.006749756
45	0x3eef7a53	0.46773013
46	0x3d4d1555	0.050069172
47	0x3e8da00f	0.27661178
48	0x3dbfa083	0.09356787
49	0x3e945d5e	0.28977484
50	0x3e27bec5	0.16381367
51	0x3e8acf87	0.27111456
52	0x3dbaa99b	0.09114381
53	0x3df37594	0.118876606
54	0x3cfb768f	0.030696182
55	0x3d1e9609	0.038717303
56	0xbd761a4c	-0.060083672
57	0x3cf9877b	0.03046011
58	0xbda76cc8	-0.08175045
59	0xbd8ac18f	-0.067751996
60	0x3d817a0d	0.063221075
61	0x3dea84b8	0.11451095
62	0xbd5c3fda	-0.05377183
63	0x3d95a58e	0.07306968
64	0xbd3e63a4	-0.046481743
65	0xbe08fc2b	-0.13377444
66	0x3e49e004	0.19714361
67	0xbf4fbaf1	-0.81144625
68	0x3e74a8c4	0.23892504
69	0x3e1e92b3	0.15485649
70	0x3d92ac2a	0.07161744
71	0x3d69c96a	0.05707685
72	0xbe253711	-0.16134287
73	0xbe9dee5d	-0.3084592
74	0xbe205254	-0.15656406
75	0xbed0a20e	-0.40748638
76	0x3e2a7b8b	0.1664869
77	0x3e91751c	0.2840966
78	0xbd36b0ea	-0.044602312
79	0x3dd52cfa	0.10408969
80	0xbe91ad0b	-0.28452334
81	0xbda747cb	-0.0816799
82	0x3e2981bf	0.165534
83	0xbee5aec6	-0.44859904
84	0x3dd4e198	0.10394591
85	0xbe99b5b7	-0.3002145
86	0x3f403e91	0.7509547
87	0x3df71c79	0.120659776
88	0x3ec5483b	0.3853167
89	0x3db25ad8	0.08708733
90	0x3ec7b838	0.39007735
91	0x3d8d1d10	0.06890309
92	0x3e444a51	0.19168974
93	0xbe3bb636	-0.18331227
94	0x3e66e3dc	0.22547859
95	0x3f10b806	0.565308
96	0x3d618d1b	0.05506621
97	0x3e70e137	0.23523413
98	0xbe0d4d59	-0.13799037
99	0x3c1fc243	0.009750905
100	0xbe3deeaa	-0.18548074
101	0xbc70657b	-0.014672632
102	0x3e188605	0.14894874
103	0x3eac8d7b	0.3370169
104	0x3db80607	0.089855246
105	0x3dfacc06	0.12245946
106	0xbd3826ab	-0.04495875
107	0xbd7afd9e	-0.061277024
108	0xbddac70e	-0.10682498
109	0xbd364329	-0.044497643
110	0x3e8366e4	0.25664437
111	0x3dc5f6c7	0.0966621
112	0x3e4ce411	0.20008875
113	0xbd443bf0	-0.047908723
114	0x3d425c9b	0.047451597
115	0xbd96d4e3	-0.07364824
116	0xbe183956	-0.14865622
117	0xbd6c9ea5	-0.057768483
118	0x3e283900	0.16427994
119	0x3e165919	0.14682426
120	0x3e942538	0.28934646
121	0xbe248e94	-0.16070014
122	0x3d8622a7	0.06549578
123	0xbcff1d5f	-0.031141935
124	0xbda925c5	-0.08259157
125	0xbd5463ba	-0.05185292
126	0xbe85ee7f	-0.2615852
127	0xbe104ef6	-0.14092621
128	0x3e867fa7	0.26269266
129	0x3eff4de1	0.49864104
130	0x3e6a0ae5	0.22855718
131	0xbdf2c59d	-0.11854098
132	0x3e8cdceb	0.27512297
133	0xbeb1c9f7	-0.347244
134	0x3e934d35	0.28769842
135	0xbea58751	-0.323298
136	0xbd93bce8	-0.072137654
137	0x3d760585	0.060063858
138	0x3a30c331	0.0006742953
139	0xbd1fae6c	-0.0389847
140	0xbbdf75f0	-0.006819479
141	0x3b4acdea	0.0030945488
142	0xbc26f89f	-0.010191112
143	0x3c72ce41	0.014819683
144	0xbd720482	-0.05908633
145	0xbdaffbab	-0.08592924
146	0x3b398ace	0.0028311494
147	0xbe45250b	-0.19252412
148	0xbd7d8f35	-0.06190415
149	0x3d0468b2	0.032326408
150	0xbe743a65	-0.23850401
151	0x3f198f71	0.599845
152	0x3c0735b5	0.008252551
153	0xbe1db988	-0.15402806
154	0x3bfa1f52	0.007633128
155	0xbde9d81f	-0.11418175
156	0xbe153e24	-0.14574486
157	0x3e4655e1	0.19368698
158	0xbedfbc6a	-0.43698436
159	0x3f550dc5	0.83224136
160	0x3e9cc9c9	0.306227
161	0xbdfdab55	-0.123861946
162	0x3d20e385	0.03927948
163	0xbde35621	-0.11100412
164	0xbe562c50	-0.20915341
165	0xbd35a815	-0.04434975
166	0xbf0a6807	-0.54064983
167	0x3de66a4b	0.112507425
168	0xbc18fe00	-0.009337902
169	0xbd6e75b8	-0.058217734
170	0x3f2d3873	0.6766426
171	0xbf09229a	-0.5356842
172	0x3f10e101	0.5659333
173	0xbe098e21	-0.13433124
174	0x3e998b50	0.299891
175	0xbf03d1a8	-0.51491785
176	0x3e98a550	0.29813623
177	0xbd8b1476	-0.06791012
178	0x3d39d9dc	0.045373783
179	0x3e738688	0.23781788
180	0x3d788fe7	0.06068411
181	0x3d0fe721	0.03513253
182	0xbe3a269e	-0.18178794
183	0x3e068241	0.13135625
184	0xbe8bbc92	-0.27292305
185	0x3e5789f5	0.2104872
186	0x3d472296	0.048616968
187	0x3e4c108a	0.19928184
188	0x3e2ced35	0.16887362
189	0xbe80e76d	-0.25176564
190	0x3ac35e35	0.0014905395
191	0xbc2e418c	-0.010635745
192	0xbddba13a	-0.10724111
193	0x3d9cf6c1	0.07664252
194	0x3e579888	0.2105428
195	0xbdb2b141	-0.08725215
196	0x3e36db00	0.1785698
197	0x3a6cfe98	0.0009040623
198	0x3bae7c01	0.005324841
199	0x3db0bbdb	0.086295806
200	0xbd8d3e53	-0.06896653
201	0x3da762bf	0.08173131
202	0x3e970e33	0.2950302
203	0xbe93eb01	-0.2889023
204	0x3ea0ac8f	0.31381652
205	0xbdf6aa56	-0.12044208
206	0x3e02f84c	0.1279003
207	0xbd9e5d3e	-0.07732628
208	0x3d5f0dd7	0.054456558
209	0x3e20cb6b	0.15702598
210	0x3e17b212	0.14814022
211	0xbe04a5bf	-0.12953852
212	0xbe25bae1	-0.1618457
213	0x3f1b8a87	0.6075825
214	0xbe029609	-0.12752546
215	0x3e8c566e	0.2740969
216	0x3d6de47c	0.058079228
217	0x3e8ca809	0.2747195
218	0x3e268230	0.162606
219	0x3e4dc608	0.20095074
220	0xbdfcf915	-0.12352196
221	0xbde5e761	-0.11225773
222	0xbd7cb931	-0.06170005
223	0xbe1ecbed	-0.15507479
224	0xbe5d4f3b	-0.21612255
225	0xbf087cbd	-0.53315336
226	0x3e0b09e3	0.1357799
227	0xbf007d1e	-0.50190914
228	0xbcf83a0a	-0.030301113
229	0xbd6623df	-0.056186553
230	0xbddde4e9	-0.10834677
231	0x3d884116	0.06653039
232	0x3bfe0bb6	0.007752861
233	0x3e99a57b	0.30009064
234	0x3d81ace1	0.06331802
235	0x3ebb1443	0.36538896
236	0x3da51e99	0.08062477
237	0xbe284aed	-0.16434832
238	0x3d0abbf1	0.03387064
239	0x3cf91ae8	0.030408338
240	0xbd3e4dcd	-0.046460915
241	0x3e85a8b6	0.2610528
242	0xbd02b482	-0.031910427
243	0x3e4d3486	0.20039567
244	0x3e622495	0.22084267
245	0xbdf18dd7	-0.11794632
246	0x3db8c115	0.090212025
247	0xbc74b22d	-0.014935059
248	0x3d7e0a51	0.062021557
249	0x3c82f783	0.015987163
250	0xbccf3ce2	-0.025297586
251	0xbcd014d9	-0.025400566
252	0xbd976a26	-0.07393293
253	0x3e66b4ac	0.22529858
254	0xbe00f08c	-0.12591761
255	0x3e1bc34c	0.15211219
