hand-gesture-recognition/model/keypoint_pinky_2class_miew/keypoint_classifier_pinky_2class.tflite (tflite, 6468 bytes, 6 tensors)

arith.constant f4 [2, 10]
00000000: 7dbf 543f 5345 57bf 0300 4fbf 6e75 cebc
00000010: b9d8 39bd 0fa7 253f 3d18 223e 1115 263f
00000020: 4cd0 963e 95a0 17bf 9094 1b3e 4180 30be
00000030: b17b 803f 6eb0 c5bd 194c c8be d77a 25bf
00000040: 4ebc 3bbf b88b b13c 16e4 93be a689 413e
0.8310469 -0.84090155 -0.8085939 -0.02520248 -0.0453727 0.64708036 0.15829559 0.64875895
0.29455793 -0.59229404 0.15193391 -0.17236425 1.0037748 -0.09652792 -0.39120558 -0.64640564
-0.73334205 0.021673068 -0.28884953 0.18900165

arith.constant1 f4 [10, 20]
00000000: 6c7b da3e 5639 6b3d 0f80 143e 5bb3 953d
00000010: b2a5 d6bd cfd4 903e 520f ad3e d130 5a3e
00000020: 7263 073f a412 b4be 482f 59be e489 023f
00000030: 3149 dd3d 847d fcbd be1d 993e 3260 f2bd
00000040: 43a9 ad3e 52e5 febe 811b 743d 6b3d bb3d
00000050: 8924 6fbe 8cd2 eebd 238a 73be d747 38be
00000060: 1d1e d4be d392 84be e325 4cbe b0d8 8abd
00000070: 5825 c0be 1ade 513e fca4 753e f562 9ebd
00000080: 1b66 163d cccf 28bb 20fe 67be 6ddf 443e
00000090: ffed 123d 6484 513f c95a bf3e 7309 173f
000000a0: d706 aabe a852 73be abec 92be 2897 cabd
000000b0: 0936 dcbd a33e 7abd e8bf 46be 845e 98be
000000c0: 3f49 73be 1457 283f 6c77 d5bd da42 85be
000000d0: b729 27be ce9c 113f ead5 debc e679 88be
000000e0: c9ed 133e 4a86 923e 8093 99be d15d 803e
000000f0: dfa9 1b3d 45ee 89be 2bb8 b7be 25e9 9b3c
00000100: f43a 1d3d 2486 e63e f68a 2d3e 569d e93d
00000110: b414 e3be 5058 ccbd 3fc4 dabe 2cf7 7e3e
00000120: 77af b2be 8bdb 69be 5a26 06be 9732 7c3e
00000130: baa7 b73d cda9 83be abac 86bd c531 87bd
00000140: 72ec db3e ab6d c5be 2507 b9bd 65ae 85bb
00000150: cbe4 e03d bb72 963e f3f9 fc3d 43c5 1c3f
00000160: 3a12 8e3d c91d 51bc 1ca3 853e 38d3 963e
00000170: c245 1c3f f62b 40bd 40cd 6d3d 22c1 c23e
00000180: 8060 32be 4d75 a8bd ebc7 99be 4fd8 fd3d
00000190: 7d1f 60bd be7a 60be 78a0 9fbe 436f b8bd
000001a0: 263a f83d 5cc0 d53e 277b 323d 2c6c f43e
000001b0: bd33 dabe 1112 90bc 294d 0f3e 536d 493e
000001c0: f6ad fa3e 0421 1cbd 9f70 ccbe 83d6 9f3e
000001d0: 249d d8bb dbae 87be c362 d13d feb5 6e3c
000001e0: af78 063f 729f c9bd 8e35 b53e 697a d03e
000001f0: 5b24 063f 7e3f d43d 97f6 d93e c86d 49be
00000200: 9f0b c63b 70fc 9fbe 887d a83e 8ff8 8d3e
00000210: 0987 7c3e aa48 6cbe e03e 80be 0a24 023d
00000220: 4656 c83e dd38 f9be a27d c9bd 4be7 0dbe
00000230: 4558 c83e d2be 8abd d040 163e aecc 773c
00000240: 3a58 18bd 1ec7 a23e e207 963e d717 463e
00000250: 9db0 143f 92c6 b3be 49d9 043e 7303 e33d
00000260: fa38 913e 1316 f73d a019 823e 1514 443e
00000270: 7493 08bf 9786 7cbd 4489 d9be 7170 8b3d
00000280: 07b0 a0be 04d2 65be 2f1c 8bbe 0e50 8abe
00000290: c801 f6bd f868 283e fbda 203e 2fc1 0c3f
000002a0: 919b 2d3e d0bc b3be f251 64be 865c f6bd
000002b0: 3c7e c5be d541 90bd fec5 713e 9038 35be
000002c0: 58a7 053f f8ea 46be 5f73 9ebe d182 35bc
000002d0: 0d48 9abd 2fed de3e d7ee 35be 6d89 9dbe
000002e0: f8a4 4bbd 25ed f7bd c3b1 43bd 0fee b4be
000002f0: e4e5 423d 945e 9abe 85ae fdbb 9ab2 fcbe
00000300: 6c9c 89be ccea 2c3f f4d4 90be 80b4 40be
00000310: e6be 963c fbbd c63e a5bf c43d 0711 06be
0.42672288 0.057427727 0.14501975 0.073096 -0.104808226 0.2828736 0.3380075 0.21307684
0.52886117 -0.35170472 -0.21209443 0.50991654 0.10804976 -0.12328628 0.29905504 -0.11834754
0.339182 -0.49784333 0.059596542 0.09142574 -0.23353781 -0.116612524 -0.23783164 -0.17996155
-0.41429225 -0.25893268 -0.19936328 -0.06779611 -0.3752849 0.20494881 0.23988718 -0.07733718
0.03671847 -0.0025758622 -0.22655535 0.19225855 0.035871502 0.8184264 0.3737395 0.58998793
-0.33208343 -0.23762 -0.28696188 -0.09892112 -0.10752494 -0.06109489 -0.19409144 -0.2975961
-0.2375841 0.6575787 -0.104231685 -0.26027566 -0.16324507 0.5687989 -0.027201612 -0.266555
0.14446177 0.2861808 -0.29995346 0.25071576 0.0380038 -0.26939598 -0.35882697 0.01903207
0.0383863 0.45024216 0.1694754 0.114069626 -0.44351733 -0.09977782 -0.4272785 0.24898976
-0.34899494 -0.22837655 -0.13100567 0.24628673 0.08967538 -0.25715485 -0.065759026 -0.0660129
0.4295383 -0.38560233 -0.09034566 -0.0040796273 0.10981139 0.29384407 0.123523615 0.612385
0.0693707 -0.012763449 0.26101005 0.29458022 0.6104394 -0.046916924 0.05805707 0.38037974
-0.17419624 -0.08225498 -0.30035338 0.12394773 -0.05471753 -0.21921822 -0.31177115 -0.090055965
0.12120466 0.4174832 0.04357448 0.4773878 -0.42617598 -0.01758674 0.13994278 0.1967061
0.48960847 -0.038117424 -0.39929673 0.31218347 -0.0066105295 -0.26500592 0.102239154 0.0145697575
0.525279 -0.09844865 0.3539242 0.40718392 0.52399224 0.10363673 0.42570946 -0.19670784
0.006043866 -0.31247282 0.32908273 0.27728698 0.24660887 -0.23074594 -0.2504797 0.03177265
0.3912832 -0.48676196 -0.09838416 -0.13857763 0.39129844 -0.06774677 0.14673162 0.015124483
-0.037193514 0.3179254 0.2930289 0.19345032 0.5808199 -0.35112435 0.12973513 0.11084642
0.28363782 0.12064757 0.25410175 0.19148286 -0.53349996 -0.061651792 -0.42487538 0.06808556
-0.31384298 -0.22443396 -0.2716994 -0.27014202 -0.120120585 0.16446292 0.15708534 0.54982275
0.16953875 -0.3510499 -0.22296885 -0.12029366 -0.38572872 -0.070438065 0.23610684 -0.17697358
0.5220847 -0.19425571 -0.30947396 -0.011078552 -0.07533274 0.43540332 -0.17766891 -0.3076891
-0.049717873 -0.121057786 -0.04777695 -0.35337874 0.047582522 -0.30150282 -0.0077417516 -0.49355012
-0.26877153 0.6754577 -0.2828747 -0.18818855 0.018401574 0.3881682 0.09606866 -0.13092433

arith.constant2 f4 [2]
00000000: d51d 65be d41d 653e
-0.22374661 0.2237466

arith.constant3 f4 [10]
00000000: 5334 06be 71a3 ea3e 72dc d03e 318a ab3d
00000010: 7b38 26be 1aad 8bbd 75f2 70bd 35d3 243d
00000020: 8876 83be e0cc 663d
-0.13105898 0.4582782 0.40793186 0.08375967 -0.16232483 -0.06820126 -0.058824975 0.040240485
-0.2567637 0.056347728

sequential_2_1/dense_6_1/BiasAdd/ReadVariableOp f4 [20]
00000000: f915 d63c f089 a1bc 43bd 86be aca6 8abe
00000010: e334 5dbd 576c 8ebe 1d8d 7ebe 1b21 4d3d
00000020: d1c9 97be 3aa9 803e 27db 71be b776 86be
00000030: cd0f 91be 74c1 e63d 9fd5 76bd 94f9 b0bd
00000040: e5de 35be 32ec 673e 7162 f9bc f899 843e
0.026133524 -0.019719094 -0.2631627 -0.27080286 -0.054005515 -0.27817032 -0.24858518 0.0500804
-0.2964616 0.2512911 -0.23618756 -0.26262447 -0.28332368 0.11267367 -0.06026232 -0.08641353
-0.17760809 0.22648695 -0.030442448 0.2589872

sequential_2_1/dense_6_1/MatMul f4 [20, 42]
00000000: 5d60 5abe 72b1 9bbe e198 093d 0ba1 0abe
00000010: 7cae 603e a1b3 173e 2941 97bd ba2c 813e
00000020: 60e9 423d c003 da3d 86d0 abbc 7d4d 65be
00000030: e32b 2f3e d5cf d5bd 4e31 7d3e 6d1f bf3e
00000040: 61dc 203e e9d6 5dbd 5328 aa3d 000d 8c3b
00000050: 62f3 6e3d 5bc5 643e 1ffd a23e 8d94 163e
00000060: 84c7 ad3d bd60 92bc bce6 9cbd 35d3 4d3d
00000070: 3be4 4abc e0db bb3d 1caa 6b3e 1e7c 963e
00000080: b1aa b0bd 8ba8 fa3e 2455 9d3d a674 683d
00000090: 4b5a ffbd e675 2ebc c5db 30be 2e56 a83e
000000a0: dd7d 8ebe 5b07 a43e 8026 9ebd 6441 6c3e
000000b0: e4ff 453d 87cb 483e 7709 47bc eb72 06be
000000c0: dd0b 33be dd9c 2e39 963a 83be 1e6f 7bbe
000000d0: eed9 f8bb c96c 123c dad1 0f3c e181 163e
000000e0: f958 3dbe 7cd1 b9bc f72c 2dbe 86df 06be
000000f0: a422 743e c24c f03c 2bf2 3fbe 2205 143e
00000100: 6667 d13d 2049 383e a60f 9ebe a5b0 753d
00000110: 5339 2d3e 23ba 2f3e 13ea 27bc 640b 2ebe
00000120: bf70 52be dceb 5dbc c4c0 163e a62b 4c3e
00000130: 74ac 5b3e 5fdc 05be 36e5 8cbe 2cb3 563e
00000140: b951 90be b44e 143e 98a9 6e3e 6154 9b3e
00000150: 3e30 46be 5e74 053e 82a4 2c3e 1a41 00bf
00000160: dc47 1e3e 1e7f 283c 4892 013e 98cf cebe
00000170: 91ee 06bd 1f02 92bd d790 47be 4b7a c63c
00000180: 14f3 7cbe 93db 773e 6d1f d4bd cf42 dcbd
00000190: 74b9 3a3e fc8b fbbd 95d9 0fbe c4cb 00bd
000001a0: b082 7dbe c675 6bbe 2b58 03be d448 07be
000001b0: 3ce6 0d3e b01c 3cbe a80d 883d 1ab5 813e
000001c0: cfc3 7c3d 9742 84be 41a3 0a3e 1d25 3bbe
000001d0: 0c7b 843d 958f 53be f26a 7e3e 9161 203e
000001e0: b7fe d63e 56f6 043e e042 ca3e b78c 913e
000001f0: 1918 823e 94e4 933e 1ee4 e1bd 94bf 783e
00000200: 3f1a e5bc bdc1 50bd 62d5 b8bb 5e62 16bf
00000210: 5c63 69be 9984 74be 46b7 313e 6f84 a93d
00000220: dc17 2bbe a582 de3d a37b a2bd 2767 3d3e
00000230: 3cf9 1d3e 7354 95be 340b db3d ab2b 3a3e
00000240: 0604 483e 48eb 10be 223e 81bd 4b9e acbe
00000250: 7d23 ac3e 66fc 9cbb 16c4 663e fbd3 2ebe
00000260: 7141 ea3d 3d5c 5ebe 0de5 2f3e 462f 98bd
00000270: 299a 04be da88 24be 69b2 0b3e 382a 973e
00000280: 27b2 be3d f616 0d3e 1980 dd3e 27f3 d53d
00000290: d3a0 823e e4a7 aa3e 3f0f 05be 8d7f 353e
000002a0: 427c 54be 7cba 743e 6012 063e 92b2 c13d
000002b0: a022 1f3d 869a 7e3d 838f 8c3e 5b43 c93e
000002c0: 4bf0 8d3e 63e9 f53d 5a0f 3cbe 61a4 99be
000002d0: ab36 943e ad01 823e b279 6fbe 0308 d73d
000002e0: 19aa 6dbe 44a7 d03e 2e86 9e3e 0527 afbe
000002f0: f254 85bb 05a1 513d 31ea 3b3e 37f3 983e
00000300: 8e55 973d c4a3 0d3e 5a7c 94bd 3c87 0fbd
00000310: b8ea 9f3a 9d1b 9a3e 1bda 2dbe 680a cc3e
00000320: 39da 353e 0924 5d3e 0ba4 3f3e f543 1dbd
00000330: 8b77 97be 5e7e 873e b12f 943c 89cd d23d
00000340: 2990 333d 7e6f a73d 8020 ba3d 3c99 de3d
00000350: 3285 82bd c917 fbbe 0073 28be 1e40 91be
00000360: 5b81 09be ee7b a33d 83c8 20bd 2ef7 74be
00000370: fa1d a8be 1f36 60be 4632 03bd 5eca 913e
00000380: 8a67 923d 80a1 13be 7cbe 433e ede3 7ebe
00000390: 0523 87be ef27 123e 0415 883c 99c4 d83c
000003a0: db4c 433e 2f89 183d c968 e4bd 6116 4cbe
000003b0: 99c5 f9bb 2ea6 6abe f303 2b3e 59e5 7abe
000003c0: 2ec3 4a3e fb57 103e b91c 09bd 114a 24be
000003d0: 15cc 84bd b96f b43d d61c 033d 42bd a13c
000003e0: 9f05 9b3e 573e 683e 6ab8 283e 3074 663d
000003f0: b5ad 86be 0813 1cbd 697e a33d 343c 1abf
-0.21325822 -0.30408818 0.033593062 -0.13537996 0.2194156 0.14814617 -0.07385475 0.25229436
0.047585845 0.106452465 -0.020973455 -0.2239284 0.17106585 -0.104400314 0.2472584 0.37328663
0.15709068 -0.054160032 0.083084725 0.0042740107 0.058337577 0.2234091 0.3183374 0.14705105
0.0848532 -0.017868394 -0.076611966 0.05025025 -0.012383516 0.09172797 0.2301411 0.2939157
-0.08626307 0.48956713 0.07682255 0.05675187 -0.12468394 -0.010648226 -0.17271335 0.3287825
-0.278304 0.32036862 -0.07722187 0.2307182 0.04833974 0.1960889 -0.012148253 -0.13129775
-0.17484994 0.00016652369 -0.25630635 -0.24554107 -0.0075943386 0.008937069 0.00877806 0.14697982
-0.18490972 -0.022682898 -0.16911684 -0.13171205 0.2384134 0.029333476 -0.18744723 0.14455083
0.102248 0.17996645 -0.30871314 0.059982914 0.16916399 0.1716085 -0.010248679 -0.16996533
-0.20550822 -0.013545003 0.14721972 0.19938526 0.21452504 -0.13072346 -0.27518624 0.20966786
-0.2818735 0.14483148 0.23306882 0.30337813 -0.1935434 0.13032672 0.1685963 -0.5009934
0.154571 0.010284213 0.12653458 -0.40392756 -0.03294236 -0.07129311 -0.19488846 0.024228236
-0.24702102 0.24204855 -0.103575565 -0.1075493 0.18234807 -0.12282559 -0.14047845 -0.031444326
-0.24756885 -0.22994146 -0.12826602 -0.13211375 0.13857359 -0.18370318 0.0664323 0.25333482
0.061710175 -0.25832054 0.13538839 -0.18275876 0.06468782 -0.20660241 0.24845484 0.15662219
0.41991207 0.12984595 0.39504147 0.2842767 0.2540901 0.2888533 -0.11029838 0.24291831
-0.027966617 -0.050966013 -0.0056406716 -0.58743846 -0.22791809 -0.23878707 0.1735507 0.08277213
-0.1670832 0.10864762 -0.07933738 0.18496381 0.15427107 -0.29165992 0.10695496 0.1818072
0.19532785 -0.14152253 -0.06310679 -0.33714518 0.33620825 -0.0047908304 0.22535738 -0.17073052
0.11438263 -0.21714874 0.1717722 -0.07430892 -0.12949432 -0.1606783 0.13642277 0.29524398
0.093113236 0.1377829 0.43261793 0.10446768 0.25513324 0.33331215 -0.12994097 0.17724438
-0.20750526 0.23899263 0.13092947 0.09457888 0.03885138 0.062159084 0.2745324 0.393092
0.2772239 0.120074056 -0.18365231 -0.30008224 0.28947958 0.25391904 -0.23386267 0.10499575
-0.23209418 0.40752614 0.30961746 -0.34209457 -0.004068964 0.05117895 0.18351056 0.29873058
0.07389365 0.13832003 -0.07250281 -0.03504108 0.0012200689 0.30099192 -0.16977732 0.3985169
0.17759027 0.21595778 0.18714921 -0.038394887 -0.29583392 0.26463598 0.018089147 0.10293109
0.043838654 0.08175562 0.0908823 0.10869071 -0.06373061 -0.49041584 -0.16450119 -0.2836923
-0.13428251 0.07982622 -0.039253723 -0.23922417 -0.3283537 -0.21895646 -0.032030366 0.28474706
0.07148655 -0.14417076 0.19115633 -0.24891634 -0.26393905 0.14273046 0.016611584 0.026460933
0.19072287 0.037240203 -0.11152799 -0.19930412 -0.0076224324 -0.22914955 0.16700725 -0.24501552
0.19801018 0.14096062 -0.033474658 -0.16043879 -0.06484238 0.08810372 0.032009922 0.019743565
0.30277726 0.22680031 0.16476598 0.05626315 -0.26304403 -0.038104087 0.07983095 -0.6024811
