hand-gesture-recognition/model/keypoint6mar/keypoint_classifier.tflite (tflite, 6468 bytes, 6 tensors)

arith.constant f4 [2, 10]
000000 fe b7 48 3f 03 88 52 3f e4 4b 4c 3d 5e 71 43 3f
       0.7840575 0.8223879 0.049877062 0.7634486
000010 50 86 01 3f 8b d1 16 bf dc e1 8b 3e ca da b9 be
       0.5059557 -0.5891349 0.27320755 -0.36299735
000020 f0 d9 82 bf ea 0e 40 3f 9c 21 5a 3e 37 c1 81 bd
       -1.0222759 0.7502276 0.21301883 -0.06335681
000030 57 f7 d5 be 3f 82 d6 be a0 e4 45 bf f3 da 7e be
       -0.41790268 -0.41896245 -0.7730198 -0.2488821
000040 7b b3 2f 3f ca 33 10 3f 9d dd 55 3f f8 8f 2e 3e
       0.6863324 0.56329024 0.8354128 0.17047107

arith.constant1 f4 [10, 20]
000000 51 22 de bb 17 ab cc 3e 3c 3c 0d be 12 e3 1d 3e
       -0.006778993 0.3997428 -0.13792509 0.15418652
000010 6f 48 11 be 82 84 0e be 72 0f 68 bd a2 27 c6 3c
       -0.14187787 -0.13917735 -0.056655355 0.02418882
000020 42 ae 0c 3e 11 0d d2 3d 8e 63 84 be aa dd 88 be
       0.13738349 0.102563985 -0.25857204 -0.26731616
000030 a1 fe 56 be fb 8f 26 be 39 8a 09 3f 08 02 68 be
       -0.2099557 -0.16265862 0.53726536 -0.22657025
000040 4a 31 15 be f2 13 2d 3d 9f f9 a7 be 60 d6 ca 3c
       -0.14569584 0.04225535 -0.32807633 0.024760425
000050 92 49 92 3c 48 7c a4 3d 57 78 4f be 93 73 9e 3e
       0.017857347 0.08031517 -0.2026075 0.3094755
000060 c3 b0 b9 3e bb 7e 92 be 7c 3b fb 3d 47 a4 24 3e
       0.3626767 -0.28612313 0.12267205 0.16078292
000070 ee 58 4c be cb be d6 3e 1e c4 d3 3e 22 15 eb 3e
       -0.19955799 0.41942438 0.41360563 0.4591456
000080 25 28 bf be 72 2a 86 3c 57 d6 fc 3e 0f f1 9a 3d
       -0.37335315 0.016377661 0.49382278 0.075655095
000090 3b a4 f1 3e 26 67 f8 3c ec 11 b4 be 7b 1d 86 3d
       0.4719561 0.030322623 -0.35169923 0.06548592
0000a0 c1 e4 9f 3d ba 20 09 be 33 9a d9 3d 32 dc c6 3e
       0.07807303 -0.1339139 0.10625114 0.3883987
0000b0 99 fc 91 be 79 84 e0 bd 21 1b 69 be 8c 82 92 bd
       -0.2851303 -0.10962767 -0.22764255 -0.07153806
0000c0 6c 50 99 be b9 38 8e be b7 0a 2a be ce 5f 3d bd
       -0.2994417 -0.2777765 -0.1660565 -0.046233945
0000d0 7d 15 84 be 79 ee af 3e f5 72 e7 3d ad 0b 2a 3e
       -0.25797644 0.34361628 0.11301223 0.16606016
0000e0 73 63 a8 3c c6 04 a5 be 61 d0 0e 3e 06 1e 6f bd
       0.020555234 -0.32230204 0.13946678 -0.058378242
0000f0 d1 8e c5 bc 74 56 90 3e 08 53 22 3e 6e 8b 2c be
       -0.024115952 0.28190958 0.15851986 -0.16850063
000100 1d ce a0 3e 5d 11 bf 3e 0e 5b e5 3e dd c4 75 3e
       0.31407252 0.37317935 0.44796032 0.24000879
000110 a9 d2 b3 be 12 b9 01 3f 4c 47 82 be 3a 28 9a 3e
       -0.35121658 0.5067302 -0.2544502 0.30108815
000120 9e 93 db be 1a 0d 8b 3e 62 c0 52 3d f7 68 25 3d
       -0.4288606 0.27158433 0.051453 0.040383305
000130 f6 98 3c 3e 32 e0 07 bd ce 11 a8 be eb bf 53 be
       0.18417725 -0.033172794 -0.32826084 -0.2067868
000140 bd 33 65 bd 8e 51 f5 bd 1c db a8 3c 34 65 5b be
       -0.055957545 -0.11978446 0.020612292 -0.21425325
000150 a4 08 13 3e ff 57 92 3e 8e 71 b5 be 50 86 3e bd
       0.14358765 0.2858276 -0.35438198 -0.04651481
000160 7e 4e 2d 3d a5 f6 ad bd 4e 82 eb 3e 2c f3 ee bc
       0.042311184 -0.08494309 0.45997852 -0.029168688
000170 3e 91 20 be 7f ca 14 be 8d ca 57 3d e6 ca 15 3d
       -0.15680405 -0.14530371 0.0526834 0.036570452
000180 8b 51 c6 3e 2d 72 27 3c 67 18 d4 be fa 79 5f 3d
       0.38734087 0.010220093 -0.41424868 0.054559685
000190 ca bb 42 3e ac 3d 97 3b 76 3c c8 3e 12 14 8d be
       0.19016948 0.004615506 0.39108628 -0.27554375
0001a0 38 3d cf be ce a2 00 bf 58 3a d0 be f7 25 a6 3e
       -0.40476394 -0.5024842 -0.40669513 0.3245084
0001b0 ca b9 8e be 53 65 e9 3d 42 f0 32 bd fd 45 cc be
       -0.2787612 0.11396279 -0.04368616 -0.39897147
0001c0 23 79 51 be 5a e6 75 be 3b 4e ed bc 4d 73 20 3f
       -0.20456366 -0.24013653 -0.028967967 0.62675935
0001d0 18 af a3 3d a5 95 14 3c 47 12 e9 3c 86 21 af 3e
       0.07992381 0.009068881 0.028451098 0.34205264
0001e0 d9 20 00 3f c5 b0 89 3d 94 22 85 3e 00 b7 7a 3e
       0.5005012 0.06723169 0.26002944 0.24483871
0001f0 1e 29 e0 3d b0 39 97 3e 0c ea 55 be 85 86 23 3f
       0.109453425 0.295362 -0.20890063 0.63877136
000200 5b 51 64 3e 1a c7 16 be 2a d7 81 3e b2 67 a7 3e
       0.2229666 -0.14724389 0.2535947 0.326963
000210 3b 09 8b be 82 e0 7d be 6f 3d 8b 3e 86 8f 0f 3f
       -0.2715548 -0.24792674 0.27195308 0.56078374
000220 73 86 ea be b8 62 a3 3e b7 75 5b 3e f8 bb c1 bd
       -0.45805702 0.31911254 0.21431623 -0.0945968
000230 52 4d 93 3e b0 68 a2 be 96 2e e5 3e c2 16 9b bd
       0.28769928 -0.31720495 0.44762105 -0.075727
000240 ac d4 bf bd 5a e9 af 3e 59 97 94 be 1c a0 0a 3f
       -0.09366736 0.3435772 -0.2902172 0.5415056
000250 9f e6 6b 3e ff a1 b3 3e bd e3 5f 3e 64 4f 76 bd
       0.23037194 0.3508453 0.21864219 -0.060134307
000260 6d ef 40 be f1 cf b9 be 56 23 4f be 16 0e 19 bf
       -0.18841334 -0.3629146 -0.20228323 -0.5978712
000270 98 72 8d 3e ae e2 a4 be 05 26 24 3e 26 62 bf be
       0.2762649 -0.32204193 0.16030128 -0.3737957
000280 9d b0 dd 3e 0c ff 05 bd 6b 9b d5 3d c7 59 25 be
       0.43298808 -0.032713935 0.10430034 -0.16147529
000290 d0 84 8f be 5b 3d 24 be d9 7a b2 be d7 37 98 3e
       -0.28031015 -0.1603903 -0.3485935 0.29730102
0002a0 f9 58 26 3f 08 9a 83 bc 12 66 82 3d 13 14 71 be
       0.6497951 -0.016064659 0.063671246 -0.23542814
0002b0 69 f3 93 3e 9b 46 96 bd fb 1e 1b be e2 d1 ef 3e
       0.28896645 -0.07337686 -0.15148537 0.46839815
0002c0 3a d8 c0 be bd 66 03 be 76 70 65 3e 80 71 03 3f
       -0.37664968 -0.1283216 0.22406182 0.5134506
0002d0 85 d4 a1 be 8d 0a 08 3e 2d 76 b7 be 1f c1 eb 3e
       -0.31607452 0.13285275 -0.35832348 0.46045777
0002e0 f6 51 18 3e 8e 44 b0 3e 41 bc 7b be 62 53 bf be
       0.14875016 0.34427303 -0.24583532 -0.37368304
0002f0 c9 e4 d1 be 89 52 3c be 05 aa bc 3e 89 65 9a 3e
       -0.40994862 -0.1839086 0.36848465 0.3015559
000300 6f 63 5b 3e fd a2 e8 bb d5 2e 49 3e de 0c 2d bd
       0.2142465 -0.007099508 0.19646771 -0.0422486
000310 e8 09 82 3e 3d 03 b7 3e 64 12 9f be 7e 3d 8b 3e
       0.25398183 0.35744658 -0.31068718 0.27195352

arith.constant2 f4 [2]
000000 e3 bd e3 bd e3 bd e3 3d
       -0.111202024 0.111202024

sequential_1/dense_1_2/BiasAdd/ReadVariableOp f4 [10]
000000 79 e8 8c bc 49 d0 85 bc 10 b6 14 be e8 48 82 bc
       -0.017200695 -0.01633467 -0.14522576 -0.015903905
000010 13 3a ea bd f4 65 ef ba 93 65 22 3e 82 fd 17 3e
       -0.11436858 -0.0018264637 0.1585906 0.148428
000020 20 d9 65 3e 8a 60 53 3d
       0.22446108 0.05160574

sequential_1/dense_1/BiasAdd/ReadVariableOp f4 [20]
000000 9a f9 e1 3d 3f d9 36 be 79 33 9e bc 4b 83 6c be
       0.11033936 -0.1785631 -0.019311653 -0.2309696
000010 e0 04 62 be 64 47 cb bd a9 70 43 be 12 69 86 3d
       -0.22072172 -0.09925726 -0.19085945 0.06563009
000020 2e 08 cd 3d 33 7c 33 be 02 93 24 be 21 e2 42 be
       0.10011326 -0.17527847 -0.16071704 -0.19031574
000030 24 1b a9 3d c0 7c 53 be 8b 7e 65 be fc 60 1f be
       0.0825713 -0.20653057 -0.22411554 -0.1556434
000040 26 0a 49 be 01 8c 01 be d2 c6 1c 3d 98 53 0b 3e
       -0.19632778 -0.12651064 0.038275547 0.13606107

sequential_1/dense_1/MatMul f4 [20, 42]
000000 10 a2 ee 3c 48 8e 80 3e 43 17 5f 3e 25 7c 98 3d
       0.029130012 0.25108552 0.21786217 0.07445554
000010 af 83 89 bc 01 90 28 be 2e 14 dc bc 65 63 46 bd
       -0.016786424 -0.16461183 -0.026865091 -0.048434634
000020 1f ef fe bd 8f a2 1f 3e d2 d0 29 3e 3c d9 57 be
       -0.124479525 0.15589355 0.16583565 -0.21078962
000030 15 99 22 be 1b 87 95 be 5d a6 bf bd 6a 0d 81 bd
       -0.15878709 -0.2920464 -0.09357903 -0.06301387
000040 3d 69 a9 3d 7b a7 33 be bc 61 90 3e e3 71 f5 bd
       0.08272026 -0.17544357 0.28199565 -0.11984613
000050 48 33 d0 3d 4b 1d 65 be a3 10 59 bc a7 03 22 be
       0.10166031 -0.22374456 -0.013248595 -0.15821706
000060 c2 b0 d3 3d f5 ec b3 be ac 55 86 3e b3 8c 9e bd
       0.10336448 -0.3514172 0.26237237 -0.0774168
000070 ed 35 a1 3d 5d 88 ae 3d e4 83 ad 3c 47 c4 80 bb
       0.07871614 0.08522103 0.021181054 -0.003929648
000080 6a a1 c9 ba c4 41 84 be cf 67 b6 3b 0f 5d 13 be
       -0.0015383188 -0.25831425 0.005566574 -0.14390968
000090 51 24 22 bd 21 86 47 bc 81 ea fc bd cc 8c f3 3e
       -0.039585415 -0.012177975 -0.123494156 0.47568357
0000a0 dc ff 3f be 0b d0 4a 3f 22 3a 3b be 68 f2 70 3e
       -0.18749946 0.792237 -0.18283895 0.2352997
0000b0 a7 89 9c 3e da 5d 67 3c 33 51 00 3e ed 9d 45 be
       0.3057377 0.014121497 0.12530975 -0.19298525
0000c0 77 4f 9f 3e f1 e9 95 3e 82 65 66 3e 26 d4 b9 bc
       0.31115314 0.29280046 0.2249966 -0.022684168
0000d0 0a c8 54 bd a1 32 92 be b0 15 fd 3d 05 88 6c 3e
       -0.051948585 -0.28554252 0.12357652 0.23098762
0000e0 26 07 73 3d 7f 70 ed 3d 13 48 b9 3d a5 56 5e 3e
       0.05933299 0.115937226 0.0904695 0.2171274
0000f0 11 a2 e2 3d a8 c5 83 be 8c a1 0b be 17 00 1b 3d
       0.11066068 -0.25736737 -0.13635844 0.037841883
000100 db f2 b9 3d 0b 09 82 be 86 53 67 3e 7a 5e b8 3d
       0.09079524 -0.25397524 0.22590455 0.09002395
000110 e9 55 80 3e e2 85 a4 be 68 67 ff bd 46 75 42 3e
       0.25065544 -0.32133394 -0.12470895 0.18990049
000120 e4 e6 48 3e 9a 3c 6c be c2 12 02 be e0 e4 e8 3d
       0.19619328 -0.23069993 -0.12702468 0.113717794
000130 a7 d2 cc 3d e5 f7 a1 be 18 55 45 3e e7 78 9e be
       0.10001116 -0.3163444 0.19270742 -0.30951616
000140 19 4e d1 3e f4 c6 b2 3c 01 0e 0e bd e9 7a 10 3e
       0.40879896 0.021823384 -0.034681324 0.14109387
000150 13 fd 47 be bc f2 7e be 40 19 98 3e e6 4a d1 3e
       -0.19530134 -0.24897283 0.29706764 0.40877455
000160 19 41 74 3e 4f 19 61 bd fe ac 37 3e c0 20 88 3d
       0.23852958 -0.054955777 0.17937085 0.066468716
000170 69 cd ec bd 50 4f 15 3d 26 1d 03 bd 79 a4 bd bd
       -0.115626164 0.03645259 -0.03201022 -0.09259886
000180 cf b1 25 3c 33 ca b2 3d 8d e2 44 3e 8c 14 4c be
       0.010113194 0.08729973 0.19227047 -0.19929713
000190 61 5d 80 3e 47 cc 47 3c 64 d0 5c bd 20 40 be bd
       0.25071242 0.0121947 -0.053909674 -0.092895746
0001a0 e0 b2 30 3e 05 1e 39 be 1a 39 04 3d d3 67 02 3e
       0.17255735 -0.18077858 0.03228102 0.12734918
0001b0 73 9c 5d bc bd 7a 2f be bf 7e 93 bd f4 48 4b be
       -0.01352607 -0.17136665 -0.07201909 -0.19852048
0001c0 77 d6 d5 3d b3 2a 69 3d a5 95 14 3d bb 6b 81 be
       0.104412965 0.056925487 0.036275525 -0.25277504
0001d0 c9 20 25 be 6f 90 0b 3e 23 a4 3a 3e 00 8c 9a bc
       -0.16125788 0.13629316 0.18226676 -0.018865585
0001e0 c5 f4 79 be 1e f5 52 be d4 c0 12 bf d8 d9 73 3e
       -0.24409778 -0.20601317 -0.5732548 0.2381357
0001f0 6a 4b 06 bf d6 b8 9f 3e 8a fe 17 3e 02 e9 95 3e
       -0.5245882 0.31195706 0.14843193 0.29279333
000200 2e 40 6f bc f1 8d 05 be 36 2a 85 3e d2 17 2c bd
       -0.014602704 -0.13042428 0.26008767 -0.042014904
000210 03 97 c6 3d c3 c4 97 3d 12 d4 27 3d b2 9f 83 3e
       0.09696772 0.07410576 0.04097373 0.25707775
000220 a6 23 d6 3d 2c d7 38 be aa 59 40 3d be b9 6c bc
       0.10456018 -0.18050832 0.04696051 -0.014448581
000230 3e 7b 68 be a8 e6 23 3d 2c 8a 46 3d fb 76 6e 3e
       -0.22703263 0.040014893 0.048471615 0.23287575
000240 7a 53 88 3e 69 99 2d 3d 89 88 05 3e 9c 0c c0 3d
       0.26626188 0.04238263 0.13040365 0.09377405
000250 06 f7 37 be d0 8a 84 3e dd ef 29 be 04 91 c2 3d
       -0.17965326 0.25887156 -0.16595407 0.09500316
000260 60 ec 65 3e 5b 7e bd bd 70 9b 5d 3d b7 9e 92 3e
       0.22453451 -0.09252616 0.054103315 0.28636715
000270 a2 3f eb bc 6a 4b a8 3e 4f 1b be 3d 18 4c bd 3c
       -0.028716866 0.32870036 0.092825525 0.023107573
000280 d3 08 4a 3e 86 22 d3 3e 23 52 6a 3e 97 78 0a 3e
       0.19729929 0.41237277 0.22882895 0.13522564
000290 a6 52 5a 3e 9a f5 8d be 26 63 aa 3d 0b d7 d6 be
       0.2132059 -0.27726442 0.08319692 -0.4196094
0002a0 80 1e b4 bc 74 44 f5 bd 18 ed e1 3d 3f 95 c0 3b
       -0.0219872 -0.11975947 0.1103155 0.0058771665
0002b0 a2 c3 b2 3e a9 c9 cf bd 1e f6 a2 3d 54 3d cc bb
       0.3491488 -0.101458855 0.079570994 -0.006232897
0002c0 a8 07 ef 3d 18 aa 63 3e b0 f3 00 be b2 4d 09 be
       0.11671382 0.22232854 -0.1259296 -0.13408545
0002d0 27 b9 0e be 2b 4f ae 3e 2f ce da 3d 05 b9 d7 bd
       -0.13937818 0.34044775 0.10683858 -0.105333365
0002e0 fa 29 77 3d 3d 00 b0 3c 1a 0c 8a be 46 1c c3 3d
       0.060342766 0.021484489 -0.26962358 0.09526877
0002f0 2a a8 aa 3d c8 38 b8 bd 17 a3 6a bd 9a cf 77 3e
       0.08332856 -0.08995205 -0.05728444 0.24200287
000300 eb f7 46 3d 46 68 5c 3e 73 c1 8d be c4 21 5c bd
       0.048576277 0.21524152 -0.27686653 -0.05374314
000310 ca a4 e7 3d ab 20 46 be de b4 2f 3e cd da 20 3e
       0.11310728 -0.193484 0.17158839 0.15708466
000320 6a 4b 9c be 6a b6 67 bd e3 e6 01 be dc b0 98 bd
       -0.30526286 -0.056570448 -0.12685733 -0.07455608
000330 fa 46 2a 3e 94 58 9e bd 47 a9 e5 3e 05 3a dd 3c
       0.16628638 -0.07731739 0.4485571 0.027005205
000340 0b ef e0 3d 28 e2 f4 bd f0 12 2e bd 7a c2 8f be
       0.10983094 -0.119571984 -0.04249853 -0.2807806
000350 f8 e5 83 3e 8c 9d dc bc 31 91 05 be 33 f4 6b bd
       0.2576139 -0.026930593 -0.13043667 -0.057605933
000360 11 f8 2f 3e 21 ce 75 bd ce e8 74 bc a4 99 15 be
       0.17184474 -0.060011033 -0.014948083 -0.1460939
000370 85 41 bc be 0b 71 dd bd 13 a0 b0 3c 5f 21 3e be
       -0.36768737 -0.10812577 0.021560704 -0.18567418
000380 bf 9d fe 39 ed 23 2b 3e f7 f1 02 3e 41 c3 7b 3e
       0.00048564185 0.16712923 0.12787615 0.24586202
000390 5a cb b1 3e 4d 8a 79 3e 75 54 0f bd 0f 96 05 3e
       0.34725457 0.24369164 -0.034992654 0.13045524
0003a0 d4 ac 18 be 59 87 ae 3e 49 ec 9a 3c 40 07 c3 3e
       -0.14909679 0.34087637 0.018911498 0.3809147
0003b0 64 79 55 3e 20 d4 89 3e 80 d4 0a 3e b5 50 31 3e
       0.20847088 0.2691965 0.13557625 0.17315944
0003c0 f1 eb 1c be a8 32 08 3e e2 ba a2 3e d9 78 ac 3d
       -0.1532438 0.13300574 0.31783205 0.08421487
0003d0 10 19 f9 bd a6 c8 3e 3c f8 80 15 be a4 6c 79 3e
       -0.121629834 0.011644518 -0.14599979 0.2435785
0003e0 6e e3 92 bd 58 20 8b be af 1f 90 3e cc ad f6 bd
       -0.07172285 -0.27173114 0.28149173 -0.12044868
0003f0 ec e5 08 3e b1 a3 23 be 5e 52 08 3d 88 1d de be
       0.13368958 -0.15980412 0.033281676 -0.43381906
