hand-gesture-recognition/model/keypoint23feb/keypoint_classifier.tflite (tflite, 6484 bytes, 6 tensors)

arith.constant f4 [2, 10]
00000000: b6a9 363f e5ac e5be 8915 19bf 3617 58bf
00000010: 45d5 c9be 0abf 5cbf ed7a 8f3f 6e21 353f
00000020: 6faa 87bf b9f0 d2bd 18da 80bf 5019 b13f
00000030: db59 e83e 658e 733f 96d6 933f 7df5 0e3f
00000040: bf59 fabe 165d d8be 2827 8f3f 6965 7b3f
0.7135271 -0.4485847 -0.59798485 -0.8441042 -0.39420524 -0.86229 1.1209389 0.70754135
-1.0598887 -0.102998205 -1.0066557 1.383585 0.45381054 0.9513915 1.1549861 0.55843335
-0.48896596 -0.4225852 1.1183825 0.98201615

arith.constant1 f4 [10, 20]
00000000: 6a4f 893d 2207 61be 33b4 96be 7d46 9ebe
00000010: 3cc9 073f 56c9 bc3e e7a6 c73e 0ed5 713e
00000020: 2330 65bd 3d92 183f 3a58 e33d 1eab bc3e
00000030: 12c1 ebbe deb4 1a3f cf65 0c3e b3d0 953e
00000040: 1dd0 323f 3b6d a3be e386 f93e 7b87 ab3d
00000050: 52c2 d8be 4501 633f ac45 87bf 6f34 243d
00000060: 77f4 373d c0b0 32be 4b4f 69bd 1d2f 903e
00000070: d405 403f 9979 653d a46c 293e da66 3fbe
00000080: 8f43 af3d 7b26 843d 5bce afbc f3ad bbbd
00000090: ffd9 bbbd a548 943f 270a 55be 1b13 ed3e
000000a0: 55bf 3f3e 186f 273e 2450 113f cb88 12bd
000000b0: 3480 6ebe db42 8cbd 0167 603d 64f9 c83d
000000c0: 8726 0d3f 7055 10be 49d5 3b3e 6362 fe3d
000000d0: 59ed 14be 1fd3 713c 066f 97bd 461b 03bd
000000e0: e2f7 b1bb 979c 7ebf 53cb 21be b644 f13e
000000f0: b717 113f ea0e 813f 8bb4 653f dfc6 2d3d
00000100: 6c6a f1be cba5 b1be d3e3 50be 3f96 aebe
00000110: 83cb 023d 540a 8dbe 6e1e ed3e 8d6c c0be
00000120: a9cb 2fbe b219 783e 0192 c8bd 6d01 a5be
00000130: 1d73 58be c856 b83e b198 e4bd 40ba aa3d
00000140: e865 52bf aeaa fc3e 1a96 273f ba81 99bc
00000150: b065 5abe c84c 79be 492f 97be 764f 1d3f
00000160: 1213 053f e1c1 dbbd bd4e 63be 3e9f 0cbf
00000170: 8efd 09be aaf5 f8bc 7aaa 19be 86c2 debe
00000180: e5ca 8abe 1042 debb 8c3c 52be 9909 543f
00000190: da50 06bf 2f5c 443f 5063 113f 8007 52be
000001a0: b74f a2be fa09 64be 4adc 31be 2ecb fa3e
000001b0: 7259 d33e f810 98be edb7 22bf 9848 833e
000001c0: 2fe2 893d 4b1e 52be 5833 babe a8e9 a3be
000001d0: 6739 97be 95c7 2e3e 4e51 d5bd 82de c0be
000001e0: 00bc 59be 87b5 bdbe 808a babe 45ef 1b3f
000001f0: 3b93 8e3d 4fcd 103f 311f 60bf d98c 62be
00000200: 163d 59be 722e 3c3e 8fdd 323c 5eff 003f
00000210: 2f00 e63e 3c72 0c3f f1dc 163f 98b7 0a3f
00000220: 1b77 00bf af10 58be f6ba 023f 6abb d9bd
00000230: 8971 8c3e 0939 05bd 09cb d2be 2886 18bf
00000240: 3a02 223e e450 213e 51bd 0d3f 2e36 d83c
00000250: ca51 913e 3cda 62bf a055 d33d 6457 b23d
00000260: 17ff 1a3f 8b60 1e3f 1333 c93e 7572 e83e
00000270: ca3b af3e 35e1 8fbe ab7f 3f3f 60d6 423e
00000280: eca8 163f b3f5 73be 315c 13bf 8730 e6bb
00000290: 031e 88be da7f 263e 85d8 eebd e050 02bf
000002a0: 9c56 f33e aeb8 5abe cc60 50bf 5e52 92be
000002b0: 7b7c 41be 1172 973d d815 eebd 4dc2 c3be
000002c0: 3d14 43bc 2b8d 723f 98bf e4be 1d5f 033f
000002d0: 09d4 0d3f f11f 83bf f225 393e e69e 693c
000002e0: 4871 32bf b5cf a7be ea2f 8ebd 14a9 0a3f
000002f0: a2ce da3e 4079 ebbe 8b83 d63e 4825 573e
00000300: 436d 81be cdba babd dde2 74be c97e 85be
00000310: dd77 a7be 416b 033f c457 02bf 67d0 013f
0.067046 -0.21975377 -0.29434356 -0.30913153 0.53041434 0.36872357 0.38994524 0.2361643
-0.05595411 0.5959814 0.11100812 0.36849302 -0.46045738 0.6043223 0.13710712 0.29260787
0.69848806 -0.31919274 0.48735723 0.0837545 -0.42335755 0.8867381 -1.0568137 0.040089067
0.044910874 -0.17450237 -0.056960385 0.28160945 0.75008893 0.056024168 0.1654535 -0.18691579
0.08557808 0.06452652 -0.021460703 -0.091640376 -0.09172439 1.1584669 -0.20804654 0.4630364
0.18725331 0.16350973 0.5676291 -0.035774987 -0.23291093 -0.06848689 0.054785732 0.098131925
0.55136913 -0.14095092 0.1834308 0.124211095 -0.14543666 0.014759808 -0.07394223 -0.03200843
-0.0054311613 -0.9945769 -0.15800218 0.47122735 0.5667681 1.0082676 0.8972861 0.042425986
-0.47151506 -0.34696802 -0.20399408 -0.34099004 0.031932365 -0.27546942 0.46312279 -0.37582818
-0.17167534 0.24228552 -0.09793473 -0.3222765 -0.21137662 0.3600371 -0.11161936 0.083363056
-0.82186747 0.49348968 0.6546341 -0.018738616 -0.21327853 -0.24345696 -0.29528263 0.6144937
0.51982224 -0.10730339 -0.22198005 -0.54930484 -0.1347563 -0.03039058 -0.15006438 -0.43507785
-0.2710792 -0.0067827776 -0.2053091 0.82827145 -0.5246712 0.7670316 0.56792164 -0.20510674
-0.31701443 -0.22269431 -0.1736919 0.4898314 0.4127918 -0.29700446 -0.635619 0.25641322
0.06732594 -0.20519368 -0.36367297 -0.32014203 -0.29535982 0.17068322 -0.10415898 -0.3766976
-0.21263123 -0.37052557 -0.36433792 0.6091197 0.06961676 0.56563276 -0.87547594 -0.22124042
-0.21214709 0.18377092 0.0109170815 0.5038966 0.44922015 0.5486181 0.5893088 0.5418639
-0.5018174 -0.21100114 0.5106653 -0.106314495 0.2743037 -0.032525096 -0.4117053 -0.59579706
0.15821162 0.15753514 0.55367 0.026393022 0.28382713 -0.8861425 0.10319066 0.08708075
0.60545486 0.6186606 0.3929678 0.45399824 0.34225303 -0.28101507 0.7480418 0.1902709
0.58851504 -0.23824196 -0.5756255 -0.007024828 -0.26585397 0.16259709 -0.116623916 -0.50904655
0.47527015 -0.21359512 -0.813977 -0.28578466 -0.18895142 0.07394803 -0.1162526 -0.38234177
-0.011906681 0.94746655 -0.44677424 0.51317006 0.55401665 -1.0244123 0.18080881 0.014259076
-0.69704103 -0.32775655 -0.06942733 0.5416424 0.42735773 -0.45990944 0.41897234 0.21010315
-0.25278673 -0.09117661 -0.23914666 -0.26073292 -0.32708636 0.5133553 -0.5091517 0.5070862

arith.constant2 f4 [2]
00000000: 4226 4c3e 4226 4cbe
0.19936469 -0.19936469

arith.constant3 f4 [10]
00000000: 5cb3 1f3e 7669 76bd 5ea0 933d f4bb 933d
00000010: 3ce1 2f3e 22b0 923e bdb6 7f3e 5d60 013d
00000020: 58be 433e a30c d93d
0.15595764 -0.06015917 0.07208322 0.072135836 0.17175764 0.28650004 0.24972053 0.03158604
0.19115579 0.105981134

sequential_5_1/dense_15_1/BiasAdd/ReadVariableOp f4 [20]
00000000: 7cb9 9bbe 6b6a 03bf 921f e2be 2d5a cdbe
00000010: 7284 fdbe 5afa 53bf 7071 23bf d489 97be
00000020: de8e a1be 453d 20bf e1cb 02be a2e9 0ebf
00000030: 3217 1dbf ef8d f0be dc0a 10bf 1597 15bf
00000040: 0b10 68bf 36c5 05bf 4c49 1abf de7e d3be
-0.3041495 -0.51334256 -0.4416471 -0.4010786 -0.4951511 -0.8280388 -0.63844967 -0.29597342
-0.31554312 -0.6259349 -0.12773086 -0.55825245 -0.6136352 -0.46983287 -0.5626657 -0.5843366
-0.9064948 -0.52254045 -0.6026809 -0.4130773

sequential_5_1/dense_15_1/MatMul f4 [20, 42]
00000000: 60ea 6a3e cab1 5abe e66f a73c 4e5a b7bd
00000010: bdce 07bd 7f91 9fbd 5c60 9e3c 96d8 373c
00000020: 54ba dc3c a6a2 383d a0fd cb3d fab5 7ebd
00000030: f148 b73c fc0a c3bb 160b 12bd c703 d83c
00000040: f394 d3bd 80a9 253d 23b2 113d 38ad 45bd
00000050: 1c45 57bd bfc1 dd3c 8bec d7bd d60c b53d
00000060: 1c5a f2bd 4668 ff3d fb65 43bc fa2e b639
00000070: 5cd7 b5bd 402a 953d b045 debd 1d86 223e
00000080: 5dd3 48be 9b6c 483e cb54 2bbd d7e3 553d
00000090: d339 12bd 447e e13d fd1b 11be 62f5 6dbd
000000a0: 7116 923f c0b2 58bf a81f 783e 0e5f 80be
000000b0: df00 903c 849a 863e fb5d 7b3c c922 233d
000000c0: 80d9 323d 12bd 173d 49ff 933c 87a8 8bbc
000000d0: 1b36 4bbd a914 76bc 81a4 1e3d b456 abbc
000000e0: 50c4 083d 3e0f ecbc bc75 263d 84d0 bebc
000000f0: 3e7c ccbc 05f6 4ebd df83 ee3c 7b70 e0bc
00000100: 5ba6 c93c 087e 42bd baa6 023d 6a13 5abd
00000110: 6d1f 4e3c 40a7 41bd fdf0 253d 543a 3dbd
00000120: 70a4 6b3d f59a 3dbd 7847 8b3d e2f7 c2bd
00000130: 9bc8 813d dd68 a6bd 79bf 443d 5459 8abd
00000140: c8b2 91bd 7299 0cbe 711b 43bf 3fe4 923f
00000150: 00a7 7e3b dddc 1cbe 01ae 9bbb 4758 b23d
00000160: 224b 1abc 2274 90bc a0e7 5e3c d62a f6bc
00000170: 44c7 5a39 9690 3abd 04be 5dbb 3187 29bd
00000180: 77a0 903b 60f4 87bc dcba 233b c6aa f9bb
00000190: d03e 1ebc fdf8 dbbc e7e8 cabc bbbc 34bd
000001a0: c4dd 9c3c 8e62 8bbb 346f d93a 5a9a 50bd
000001b0: f78c 80bc d6c0 67bd d335 4dbd 3b41 7ebd
000001c0: 1b2c 1ebc 4e00 d7bc 0a78 99bc c438 50bd
000001d0: 49fd 05bd 6a0c b6bd ba39 26bd 9849 e2bd
000001e0: bb13 53bd 5b22 a3bc 84f4 03bd f1f2 6fbe
000001f0: 4025 c23e 351c a73f ba4a 88bd 74e4 0a3e
00000200: 17fe 82be 9664 d9bd 61d0 46bd b1d8 f3bd
00000210: 9049 87be b16d 35be 342b 93be 4f83 dabd
00000220: fd05 ccbd a059 d53d ae66 29be 5e01 f6bc
00000230: 6d92 63be 3f3f 1cbe 646e 18be 9734 1abe
00000240: cf90 27be e422 bf3c e071 07be 25e7 06be
00000250: 4324 da3c 58ad ccba 25c8 09be 99d0 1ebe
00000260: 6a58 94be 8a78 08bf 7701 253d 92e4 a6bc
00000270: c21b bc3d 0372 c7bd 3f15 e43d ccf1 53be
00000280: 3ef8 2bbe 0b43 a03d 9922 953d 0254 32be
00000290: f519 963e 00d1 7b3e 00a1 ec3e eff0 773e
000002a0: 2d22 49be 3c74 fdbd 4f18 2ebe ebae 273f
000002b0: 7ec9 a8bc 2cb4 6e3e e162 b0bc 8f68 c3bd
000002c0: 09f1 aebc 4d74 57be 0b49 b43c ec84 75bd
000002d0: b1c4 083d bb07 673d bf7d 173d 464b 5e3d
000002e0: ceb8 88bc d545 b33c d4b8 1ebd 4fb1 40be
000002f0: c10d 7d3c abb5 ca3c 1cdb 5b3d 6432 48bd
00000300: 1797 c63c 10bf 46be 9963 123e a997 8dbe
00000310: e9c6 e43c bc19 ae3c 7984 303d 7af6 27bd
00000320: e792 89bc 5f6f 1cbe 3a8f 09bd 961c 5ebf
00000330: c722 1b3e c8e5 1f3e 23b5 d6bd f656 a33e
00000340: e010 baba 6679 7b3e e41f e9bd b4fd 893e
00000350: 8edd ba3e 44fd 653e 15a2 783e 62dd 953e
00000360: 6b61 083e 7260 223e 5f7d c33d dad1 8d3d
00000370: cc8e aabd 40a8 f93d ffde 893d 1c87 ed3d
00000380: cf59 263e 8a21 aebc 7f90 063e c642 f13c
00000390: e729 01be fe88 e63d e48b 943c ac02 14bd
000003a0: 9173 d73d 662e e9bd 3982 6c3d 1a86 e6bd
000003b0: d19b 92bd ea5e 9e3b e069 733d d79e aabd
000003c0: efd6 5c3d 6cd0 dcbd 4e81 053c 4d7e 0fbe
000003d0: 450d b33c 129f 283e 5118 b83e 5e85 a9bb
000003e0: ffee a63d 3ae7 4ebd d70e 82bd c248 9b3d
000003f0: f683 83be 7637 39be 34d5 903d c5ca 7dbf
0.2294097 -0.21356884 0.0204391 -0.08952771 -0.033156145 -0.07791423 0.019333057 0.011221072
0.026944317 0.04507699 0.099604845 -0.062185265 0.022373648 -0.005952237 -0.035655104 0.026368989
-0.10331144 0.04044485 0.035570275 -0.048260897 -0.052556142 0.027069924 -0.10543164 0.08840339
-0.11833593 0.124710605 -0.0119261695 0.00034748745 -0.08878967 0.07283449 -0.108531356 0.15871473
-0.19611879 0.1957268 -0.04182891 0.052219238 -0.035699677 0.110104114 -0.14170833 -0.058095343
1.1413099 -0.8464775 0.24230826 -0.2507252 0.01757854 0.2628976 0.015342231 0.039828096
0.043664455 0.037045546 0.018066065 -0.017048134 -0.049612146 -0.015019574 0.038731102 -0.020915367
0.033390343 -0.028815862 0.040639624 -0.023292787 -0.024961587 -0.05052759 0.029115615 -0.027397385
0.024615457 -0.047483474 0.031897284 -0.05324117 0.012580735 -0.047278643 0.040513027 -0.046198204
0.057529867 -0.046290357 0.06800741 -0.09519936 0.063370906 -0.0812547 0.048034165 -0.06755319
-0.07114178 -0.1373041 -0.7621375 1.1475905 0.0038856864 -0.15318628 -0.0047509675 0.08708244
-0.009417327 -0.017633501 0.013605028 -0.030049723 0.00020864332 -0.045548044 -0.0033835182 -0.041388694
0.00441366 -0.01659602 0.0024983203 -0.0076192347 -0.00965853 -0.026852125 -0.02476926 -0.0441253
0.019148715 -0.004253692 0.0016588927 -0.05092845 -0.015692217 -0.056580387 -0.05010016 -0.062073927
-0.00965407 -0.026245262 -0.018733997 -0.050835386 -0.032712255 -0.088890865 -0.040582396 -0.11049193
-0.05153249 -0.019913843 -0.03221561 -0.23432519 0.37919044 1.3055483 -0.06654878 0.1356371
-0.2558448 -0.10614888 -0.04853857 -0.11906565 -0.2642331 -0.17717625 -0.287439 -0.106695764
-0.0996208 0.10417485 -0.16543075 -0.030029949 -0.22223826 -0.15258501 -0.1488586 -0.15059124
-0.16363834 0.023332067 -0.13227034 -0.13174112 0.026628619 -0.0015615625 -0.13455255 -0.15509261
-0.28973705 -0.5330893 0.0402846 -0.020372663 0.09184982 -0.09738543 0.11136865 -0.20697707
-0.16793916 0.078252874 0.072819896 -0.17414859 0.2931668 0.24591446 0.46216583 0.24213003
-0.19641943 -0.123756856 -0.1700146 0.6550128 -0.020603891 0.23310918 -0.021531524 -0.09541427
-0.021355169 -0.21040459 0.022007486 -0.059941217 0.033390705 0.056403857 0.036985155 0.054271005
-0.016689684 0.021883884 -0.038750485 -0.18817638 0.015445174 0.02474483 0.053675756 -0.04887618
0.024241967 -0.19408822 0.14295806 -0.2765477 0.027926879 0.021252505 0.043095086 -0.041006543
-0.016793681 -0.1527686 -0.033583857 -0.8676237 0.15149985 0.15614998 -0.10483768 0.31902283
-0.0014195703 0.24558029 -0.11383036 0.26951373 0.36497158 0.22459894 0.2428058 0.29270464
0.13318412 0.15857103 0.09545397 0.06924792 -0.083280176 0.12190294 0.06731986 0.11598036
0.16245197 -0.021256227 0.13141058 0.029450785 -0.1261364 0.11256598 0.018133111 -0.03613536
0.105200894 -0.11385803 0.057741378 -0.112560466 -0.07158626 0.004833092 0.059427142 -0.083310775
0.053915914 -0.10781941 0.008148504 -0.14013024 0.021856913 0.1646693 0.35956052 -0.0051733693
0.08151054 -0.050513484 -0.06350487 0.07582237 -0.25686616 -0.18087563 0.07071915 -0.99137527
